_stacked-ensembles/resources/ip1.pth (torch_old, 20316 bytes, 22 tensors)

dataset_stats f4 [14]
00000000: 21ff 1b42 355e 7840 8397 3948 de93 2541
00000010: 01de 2241 e3a5 2540 acad d340 c1a8 b43f
00000020: b459 6b40 9fab 2d3f b54e db44 8f22 0e43
00000030: bcc5 2242 e0de 1242
38.99915 3.88075 190046.05 10.3486 10.1792 2.58825 6.61495 1.4114
3.67735 0.6784 1754.4596 142.135 40.6931 36.71765

dataset_stats f4 [14]
00000000: 3353 5a41 3043 ba3f b234 cd47 9fd3 7240
00000010: 5049 2540 f99b be3f a2b4 8740 458f ce3f
00000020: 19e8 553f 0128 ef3e 8d40 1246 6343 fd43
00000030: 09a1 4441 8b0a fb40
13.645312 1.4551754 105065.39 3.7941663 2.5825996 1.4891349 4.2408 1.6137472
0.8355728 0.46710208 9360.138 506.52646 12.289315 7.845037

embeddings.0.weight f4 [10, 5]
00000000: 0ce5 00be 1784 77bd b1ba 94bf 3e21 f23d
00000010: a9fd 2e3f 01ea 053f cdcd b63e fa52 5fbe
00000020: df79 7a3e 0de1 3bbe 7cda e2be 1d50 01bf
00000030: e7aa e93e 4e04 92bd e15e c63d 99b5 0e3e
00000040: 7cff e2bf be00 21c0 5c42 92be da67 c13e
00000050: 6c8f 0f3e 5d80 233f 72ec ad3e 5f8a 8dbe
00000060: fe4f b33e 6be3 f43e 13da b9bf 2475 7abd
00000070: 5908 fabe cc7f eebe eb93 bc3f cf1d ce3d
00000080: 65e2 f23e 4536 263f b23a 4b3f af4e a73e
00000090: 67c5 2c3f 47e4 283f f2f5 0cbd 27eb 6b3f
000000a0: f6f6 b2bf 0ef8 823f b419 fabd e9f5 bb3e
000000b0: c58d 0f3f fda0 423f 3e08 a9be ebca 25bf
000000c0: 6308 50bf b0d0 f9be
-0.12587374 -0.060428705 -1.1619474 0.11822747 0.68355805 0.52310187 0.3570389 -0.21808997
0.24460553 -0.18347569 -0.44307315 -0.5051287 0.456382 -0.07129727 0.096860655 0.13936462
-1.7734218 -2.5156703 -0.28566253 0.37774545 0.14019555 0.6386774 0.33969456 -0.2764463
0.35021967 0.47829756 -1.4519676 -0.06114687 -0.48834494 -0.46581876 1.4732641 0.10064279
0.4743835 0.6492656 0.79386437 0.32677218 0.6748871 0.65973324 -0.03441424 0.9215569
-1.3981616 1.023195 -0.12211934 0.36711052 0.560757 0.760269 -0.330141 -0.64762753
-0.812628 -0.48792028

embeddings.1.weight f4 [16, 8]
00000000: c76f 8bbe a2a7 8ebe 8ecc d93e 929a 01bf
00000010: 9079 7cbe 8aa0 db3e 3c1a 713e d2d0 473f
00000020: 4b75 363f 00d2 083e a432 943e 7f1a 03bf
00000030: a5a1 18bf 7f8e 6fbf f468 4dbe 01a0 4b3e
00000040: 0c2e 42bf fa73 933f 37a0 d1bd 973c b7bd
00000050: e89c 8dbe 6836 a3bf b053 723f f617 febe
00000060: e163 ec3e 08ce ddbe 99cf af3f 0b4e d3be
00000070: 4c52 c93e 4d97 38bf 5daa 9d3e ed5a 313f
00000080: 2b10 56bf f709 1abd f57a cf3e 95d8 f63d
00000090: 5552 7b3f b98a 8fbe c50e b03f 4bfb fe3e
000000a0: b8ce 4bbf 0182 95bf 2bb2 f3bd 986c 0a3f
000000b0: d502 3cbe 4513 253f ae56 23bf ce73 b8bf
000000c0: eff9 4b3e 0ab7 6c3e e32f 213e 201e 403d
000000d0: b5d1 64bf be73 2ebf 504c 623f 528b e83e
000000e0: 33ca 69bf d68c f53e cbfd d93e f651 553e
000000f0: d1b1 c2be f58a 273f ca52 d53c ac08 ffbd
00000100: 8d3d 943d 7bb6 37bf baca 36bf de01 a03e
00000110: cb23 073f 6e8f 843d e9f4 6cbf b746 193f
00000120: c051 063f 61e6 fe3d f3c0 ff3e df0a 70be
00000130: cd5d 803f 2b68 c73f b7de 43be a467 1a3e
00000140: 4f4e 7b3d 8459 393f 8b85 d9be fca6 a63f
00000150: 4757 2d3e ef75 05c0 dff6 36be 69ef 11be
00000160: a719 c1be 01ab 7cbe cec4 a73f 5f88 73be
00000170: 6771 f13d 6c5b 53bf 2027 cabf b508 4d3f
00000180: 3b40 78bf b97b ec3e fc46 dabc 60d5 b9be
00000190: 7c23 bcbd dc8c 093f 1025 aabf 6ed8 573f
000001a0: daab 78be 1925 4cbf aa10 403f cfb2 76be
000001b0: e9d6 213e 47ea 16bf 2743 213f 3865 3ebe
000001c0: b2ff 923d 0e86 823e 02b6 553e 05b6 453f
000001d0: d3b6 793e b71d 09be 3f69 843e 3249 0240
000001e0: b7c4 e1bf 2387 983f 1b2e 64bd ed18 033f
000001f0: 777b 313e 16f7 da3d ce11 4d3e 6991 7dbf
-0.27233717 -0.2786227 0.42538875 -0.5062648 -0.24655747 0.4289592 0.23545164 0.7805301
0.71272725 0.13361359 0.28944886 -0.51212305 -0.5962165 -0.93576807 -0.20059568 0.19885255
-0.7585151 1.1519768 -0.10235637 -0.089471035 -0.27658772 -1.2750978 0.94658947 -0.49627656
0.46169952 -0.43321252 1.3735229 -0.4127048 0.393206 -0.72105867 0.3079404 0.69279367
-0.8361842 -0.03760716 0.40523496 0.120530285 0.98172504 -0.28035524 1.3754507 0.49801096
-0.796123 -1.1680299 -0.11899217 0.5407195 -0.18360455 0.6448253 -0.6380414 -1.4410341
0.19919561 0.23116699 0.15740924 0.04690373 -0.8938249 -0.6814536 0.88397694 0.45418793
-0.91324157 0.47959012 0.4257644 0.20832047 -0.38026288 0.65446407 0.026040453 -0.12452826
0.072383024 -0.7176282 -0.71403086 0.31251425 0.5278899 0.064726695 -0.92561203 0.5987353
0.5246849 0.12446285 0.49951896 -0.23441647 1.0028626 1.5578665 -0.19127928 0.15078598
0.061353978 0.72402215 -0.42484698 1.301971 0.16927825 -2.085323 -0.17867611 -0.14251484
-0.37714884 -0.24674608 1.3106935 -0.2378249 0.11789208 -0.82561374 -1.579319 0.8009141
-0.9697301 0.46188143 -0.026645176 -0.36295605 -0.091864556 0.5373056 -1.329256 0.8431462
-0.24284306 -0.79744107 0.7502543 -0.24091648 0.15804638 -0.5895123 0.6299309 -0.185933
0.07177676 0.254929 0.20870212 0.77230865 0.24386148 -0.13390242 0.25861546 2.0357175
-1.7638158 1.191624 -0.055708032 0.5120991 0.17332254 0.10691659 0.20026323 -0.99050003

embeddings.2.weight f4 [8, 4]
00000000: b45b 8dbf 9fcd e23e 5965 0dbf 5c13 cfbd
00000010: 0830 393d 5c0f 93bf ab20 13bf 911b 16bf
00000020: eb57 783f 6ae6 47be cba2 fcbe 0015 9ebf
00000030: 2719 bfbc fb5f 293e a7be 43bf 4406 083f
00000040: a4fb c63e eb5f 863f 444b a73e 3eab aa3d
00000050: 99db 4ebf 3c93 96bd 9d22 9cbe a1f3 163e
00000060: e04f b7be bbe4 9cbf 1dc5 b13f 0de8 243f
00000070: b4ea 87bf e151 77bf 0c2a 07bf a7df 3ebf
-1.104361 0.442975 -0.5523277 -0.101111144 0.04521182 -1.1489062 -0.5747172 -0.58635813
0.9700915 -0.1952149 -0.4934295 -1.2350159 -0.023327423 0.1654052 -0.7646279 0.5313456
0.38863862 1.0498022 0.3267461 0.08333443 -0.8080383 -0.073523015 -0.30495158 0.14741375
-0.35803127 -1.2257303 1.3888279 0.6441658 -1.0618501 -0.9660931 -0.52798533 -0.74560016

f.0.weight f4 [32, 17]
00000000: 2261 a2be f8ac d43e c019 69bd fa8e d4bd
00000010: 61bd 26be 406e 0f3e 5cdd bd3e 6825 1d3e
00000020: 63ed f33d 6225 893e 9446 8cbc 785e b73c
00000030: 744d 033f a750 b2be c676 853d b2b1 cf3d
00000040: a534 8dbe f2b3 783d 74e0 0abe 442e b23e
00000050: ee22 e53c 57c3 ac3e 58f9 1f3f cfa5 efbc
00000060: d8b0 a4be 45a5 d8be 2eee c1be 1312 3ebd
00000070: cfbb 08be 2792 f9bd 7f89 093e b6c2 f6bd
00000080: 99f9 9bbe 772f a53e 5a89 7d3c 2ce4 633e
00000090: 92f3 bc3e 77b8 6bbe 2017 06be 3bfc 4bbd
000000a0: bbdc 6abe 316a 0a3e c290 d0bd 1c02 673e
000000b0: db6e dfbd d9d6 2bbe 9180 853e 6e07 7dbe
000000c0: 39dd f7bd 3065 023a 3aad f83e 2cd4 143e
000000d0: 1107 043d 08d1 813d 4cce 9b3e 2a61 a13e
000000e0: 0fdc efbd 08d3 673e e154 e63d 90f7 65be
000000f0: ce6b c0bd 5e27 c6be 543d 52be 0788 8abe
00000100: 15c0 c6bd 54bb 843e 53ad 70be 279d 99bd
00000110: c5c9 c9be 805e 873d dc35 1fbe d40e 11bd
00000120: 2c23 c0bd 9d46 c33d ca8e 6f3e 332e bd3e
00000130: ff3c 3cbe 4e85 3bbd a919 ac3c dc36 b83d
00000140: c8fa 53bd d304 383e 4b94 54be 0091 51bc
00000150: 0a5a 263c cee7 803e b62d 04be 606d 06be
00000160: bf1f 4a3e a496 f23e d6ff c6be 7359 8fbe
00000170: d8ff 863e 5403 91be e46d 9abd 794e afbb
00000180: 6eb2 5d3d 2086 80be 78d6 483d cfcd 613e
00000190: d6da ea3c 006d d43d b366 373f 01cf 6e3e
000001a0: f336 cd3d 5017 6b3e fe30 20bd 28ea 0b3f
000001b0: a9db fb3e 7be4 1ebe 45a6 a13e 1ca4 0b3e
000001c0: 0751 473e 606a f9bd 756c 55be dbc9 393e
000001d0: f059 903d 58ee fb3d 72bb 48be 8765 de3e
000001e0: b015 c73d 5531 04bd 493b 14bf cfc9 33bd
000001f0: c477 263c fa66 db3d 2d9d ebbd 5e12 8abd
00000200: e1ee a6be ddf3 ee3b 58ac 753e 2221 833e
00000210: 3d33 833e 90fd 8ebd bf83 3b3c b3ea 58be
00000220: 4bef 2e3e facf 1abd 5523 13bf 2c47 2cbd
00000230: 05fb abbe 2aec 803e 51ad 833e 053d c23d
00000240: da4e 94bd 0c24 a73d 99de 813d b5fc b1be
00000250: bd57 debb 3b9f 613d 4f28 b8be 7cd3 e8be
00000260: 1e09 47be 299d 4a3d 795c 88bd 28ee f63e
00000270: ee62 873e 31b3 9b3c b461 dabd 65eb 893d
00000280: 7ded 823c a96a 183e 568b 9e3e a86f 2cbe
00000290: 1ff7 3bbf 5c61 67be df1e acbe 4e11 903d
000002a0: f758 e5bc fb1d a9be 5fd8 dc3d 8d73 e5bd
000002b0: b648 06bd 9253 413e 95cb db3b 8650 94bd
000002c0: 4ffe e1bc efb5 ef3e 027f 8f3e 5f1e 2fbf
000002d0: 0c55 fabd de92 d33d c09f 25be a020 843d
000002e0: 358b 29be fd49 37be fe63 0bba b926 1a3d
000002f0: 0cd2 343e 865b 123e 813c de3d 446c 86be
00000300: f30f eebc 7225 bf3d ff28 e93e a3ec bcbe
00000310: 16d6 4a3e 9af7 0abf 80f6 bbbc 8777 933e
00000320: f4f6 743e 4cd0 07be a357 81bd 0d0b 093e
00000330: 698a cabd 1da7 e9bd e0a8 7d3e 7a0f 9e3e
00000340: e020 b8bd 38cf 323e 836a 3ebe ffca 223e
00000350: 8aec b4bd fc28 a9be 1fc8 12be 03f2 363e
00000360: 92c6 a43e cd75 2bbd d55e 4bbe f851 85bc
00000370: 0874 483e bc14 e43e 00fe 5bbd 3fbe 863e
00000380: dfa0 0bbd 8184 943e 4238 1d3e 54af 8a3e
00000390: 901f b43b 2abd c0bc 008d 6abe ad48 323d
000003a0: 909b c2bd 716a 4abe 80d2 ebbb 0829 54be
000003b0: 9beb 8c3d 7139 dbbe 3563 b63e e2c4 443e
000003c0: b517 e33d 36bf 093e b713 b3bd 302d e23d
000003d0: 1b95 62bc b066 a3be bcb3 8b3c 9359 b93c
000003e0: 734f bf3e 8a5f 4e3e 8095 843e b629 5a3d
000003f0: cb7a e53b 1a16 d43d 582e 963e 1c74 c9be
-0.3171473 0.41538215 -0.056909323 -0.10378833 -0.1628318 0.14006901 0.37082946 0.153463
0.11910512 0.26786333 -0.017123498 0.022383913 0.5129006 -0.34827158 0.06516795 0.101413146
-0.27579227 0.060718484 -0.13562185 0.34800923 0.027970757 0.33742782 0.62489843 -0.029253868
-0.3216617 -0.4231359 -0.3787703 -0.046403956 -0.13352893 -0.121860795 0.13431357 -0.12048857
-0.30463865 0.32262775 0.015474642 0.2225501 0.3690458 -0.23019587 -0.13094759 -0.049801093
-0.22935764 0.13517071 -0.1018386 0.22559398 -0.10909816 -0.16781177 0.2607465 -0.24709865
-0.12102742 0.00049741846 0.4856966 0.14534062 0.0322333 0.06338698 0.3043083 0.31519443
-0.11711895 0.22639096 0.11246658 -0.22457719 -0.09395562 -0.3870191 -0.20531207 -0.27056906
-0.097046055 0.2592417 -0.23503618 -0.075006776 -0.3941175 0.06609821 -0.1554789 -0.03541453
-0.093817085 0.09534953 0.23394313 0.3694931 -0.18382643 -0.045781426 0.02100833 0.089948386
-0.051752836 0.1797059 -0.20759694 -0.012790918 0.010153303 0.25176853 -0.12908062 -0.13127661
0.19738673 0.47380555 -0.38867062 -0.27997932 0.26367068 -0.28322852 -0.07540491 -0.005349931
0.054125242 -0.2510233 0.04903266 0.22051166 0.028668802 0.103723526 0.7164108 0.23321153
0.10020246 0.22958112 -0.039109223 0.5465417 0.49191025 -0.15516846 0.31572166 0.13636822
0.19464503 -0.121784925 -0.20842154 0.18143408 0.07048404 0.1230132 -0.19602755 0.43436834
0.097209334 -0.03227361 -0.5790296 -0.04389363 0.01016039 0.107130006 -0.11504588 -0.067417845
-0.32604125 0.0072922544 0.23991525 0.25611216 0.2562503 -0.06981957 0.011444985 -0.2118328
0.1708347 -0.037796 -0.5747579 -0.042060062 -0.3358995 0.2518018 0.25718167 0.09484295
-0.07241602 0.08161172 0.06341285 -0.34763113 -0.0067853616 0.055083495 -0.35968253 -0.4547385
-0.19437072 0.049466286 -0.06658263 0.48228574 0.26442665 0.019006344 -0.10663167 0.06734351
0.015982384 0.14884438 0.3096568 -0.16839468 -0.7342395 -0.22595733 -0.33617303 0.070345506
-0.027996523 -0.33030686 0.10783457 -0.1120368 -0.032784186 0.18879536 0.0067076185 -0.07241921
-0.027587084 0.46818492 0.28026587 -0.6840572 -0.12223253 0.10330747 -0.16174221 0.06451535
-0.1655701 -0.17899318 -0.0005317329 0.037634585 0.17658252 0.14292726 0.10851384 -0.26254475
-0.02906034 0.09333314 0.4553909 -0.3689929 0.1980823 -0.5428406 -0.022944689 0.2880213
0.2392233 -0.13263053 -0.063155435 0.13383122 -0.09889681 -0.114088275 0.24771452 0.30871183
-0.089906454 0.1746186 -0.18595318 0.1589775 -0.08834179 -0.3303908 -0.14334153 0.17865758
0.32182747 -0.04186039 -0.19860394 -0.016274437 0.19575512 0.4454707 -0.05370903 0.2631702
-0.034088966 0.29007342 0.15353492 0.2708689 0.0054969266 -0.0235277 -0.2290535 0.04352634
-0.095023274 -0.19767167 -0.0071967244 -0.20718777 0.06880876 -0.42817262 0.35622564 0.1921573
0.11088506 0.13451847 -0.08743995 0.11043775 -0.013829495 -0.31914282 0.017053477 0.02262572
0.37365302 0.20153633 0.2589531 0.053262435 0.0070031635 0.10355778 0.29332232 -0.39346397

f.2.running_mean f4 [32]
00000000: 9462 843e cb94 afbe ebe0 66bb 2a0e ad3e
00000010: 66ed 783c 3c34 763e e0f8 343e 7207 313e
00000020: b4f7 bb3d ce96 f53e a800 81bb d69a 4b3e
00000030: 2916 a8be 75a9 a03e 200a 64be c130 1abd
00000040: a60e 52be 988b fe3e 5ce7 78bd 5f73 e43e
00000050: fac9 743d b3cb 923e 5e94 b43e 7cd0 8abe
00000060: 8ca1 093f df6b 0c3e 0e09 133f 7985 d33c
00000070: 690d b93e 71e0 d8bc 9495 b63e 5803 4ebe
0.2585646 -0.34293208 -0.0035229276 0.3379987 0.015193319 0.24043363 0.17673063 0.17287996
0.09178105 0.47966617 -0.003936846 0.19883284 -0.32829407 0.31379285 -0.22269487 -0.03764415
-0.205134 0.49715877 -0.060767516 0.4461927 0.059762932 0.28671035 0.35269445 -0.27112186
0.53762126 0.13713025 0.5743569 0.02582048 0.36143044 -0.02647421 0.35660994 -0.20118463

f.2.running_var f4 [32]
00000000: 5237 153e fdd9 073e cde1 8f3e 175d 563e
00000010: 846e c03d 57b1 013e f533 753e e655 0c3e
00000020: cf44 843e 819d 2d3e 530c 3f3e 023c a13e
00000030: 9d4c 1c3e a726 083e a0e6 5a3e 3f4c c93d
00000040: 59ac a53e 74a9 9f3e d21a 0d3e 09fe ff3d
00000050: b24d 473e 9eb5 2f3e 17e9 553e bed7 5a3e
00000060: 9cfa 823d 5c00 9d3d 8fd7 213e b9ff 5d3e
00000070: ee77 903e 9fcd 453e 0791 fc3d 6be0 663e
0.14571884 0.1326675 0.2810196 0.20933948 0.09396079 0.12665306 0.23945601 0.13704643
0.25833747 0.16954614 0.18657045 0.31491095 0.152636 0.13295995 0.21377039 0.09828996
0.32358053 0.3118397 0.13779762 0.12499625 0.19463232 0.17159125 0.20889698 0.21371362
0.06395456 0.07666084 0.15804885 0.21679582 0.282165 0.1931672 0.12332349 0.22546546

f.3.weight f4 [16, 32]
00000000: a2d0 17be a6ee 8b3c 67ad 043e 86f7 793d
00000010: 138c 9dbd b01b ec3e 45ef 25be 75ec 9abd
00000020: e823 0ebc 6877 61be 3995 8d3d b921 b2bd
00000030: 652d 0f3e 25fc 58bd 3ed4 c03c fafd e03d
00000040: cf41 18bb 80fd ef3e 8712 963e 2fe0 ac3c
00000050: 505c 16be 172a 37bd 6347 36be 3a88 99be
00000060: 3c1b e1bd 24e2 4f3d 1760 9a3e f2b0 7c3d
00000070: 6de7 8b3d 3c9d 9cbe fa0c 34be 1e26 6a3c
00000080: 4563 34be 7df8 4dbe 7709 b9be d2ba d1bd
00000090: 90db 57be af63 843d b8c0 393d 3a00 083e
000000a0: 4429 c93c 5d76 f73d c37f 3a3e c307 08be
000000b0: ffc5 dfbd 91f1 503e 2b76 ecbd 8d80 33be
000000c0: 9ecf eebd 181e 81bd f233 d53d a30f 0f3d
000000d0: 14f4 e6bd 48a8 f23d 7517 4abe 9c8c 743d
000000e0: a4b8 2f3e ce9d 3abe 8231 e53d b4e4 283e
000000f0: a519 c9bd 2385 07be 0a89 d9be 5d0b eabd
00000100: 929a 903c 5c5a 46be d399 6b3e 6405 383d
00000110: 607a 693e d4f9 22be 5389 543e 79b4 e6bc
00000120: 6a08 1abe f9bc 83be 73f0 9fbb 5df3 2abe
00000130: accc ab3c 617e 25be e4ed c53d 1743 aa3e
00000140: 4a19 0b3e 38ef 49be b7ef c1be fd0f 793d
00000150: 8c5e be3d bc12 463e fb87 38be c2d4 17bd
00000160: 2783 15bd d91c 853e 2b74 d5bd aa63 07be
00000170: 26e3 bdbd 891b 2e3e c0f1 adbd d8fe bbbe
00000180: b848 d53d 0bae 243e 7849 30bd c49d c8bc
00000190: a325 35bd fd99 d33d b133 a63d df40 b43e
000001a0: 5b24 2abe 2ae8 c4be 4902 30be e991 283e
000001b0: 9594 9e3e 581c ac3e 7e75 2bbd 839f ed3d
000001c0: b42f 3f3e 50df d1bd 3012 c3bd 5206 02bf
000001d0: 4311 6cbe f5e8 bc3d 9ecb 3c3e 4441 413e
000001e0: 110c b6be cf5d 9bbd f623 18be 9eb5 36be
000001f0: 1b8c e03c 9d5d babc f038 efbd c969 15be
00000200: 6042 c13d 92b2 0b3e f094 1cbe 3d5f b2be
00000210: 7753 1cbf 1c83 8bbe b43a 113e 967e 413e
00000220: abc4 bb3d 0eb1 5d3e 7062 753e 9fb1 a3bd
00000230: f1cc 46bd 9850 a93d 3104 383d 1000 2cbe
00000240: 619e f8bc e497 813e 2f66 433e 51bf 33be
00000250: 2bed b13e 7935 d3bd 1342 0b3c 8364 86be
00000260: 0246 af3c 79dd 583e f96d 073f b2aa 743e
00000270: 470a 14be a3d6 9e3d ed3b c6bc 8b50 aa3e
00000280: 4ef7 1dbd 9cdc 61bd 696b 413d 2fa6 7abd
00000290: 552c 003e 8590 34bb 824a 08be 9849 203e
000002a0: 3338 3a3e ead9 70be 4096 71bd d413 febc
000002b0: e31b f7bd a018 473d 3101 a4bc e8c9 943e
000002c0: 42ab 13be 7a21 4d3d 18e9 643e c855 b13e
000002d0: b8ff 04be 62d2 273d 607c 2c3e c3d5 093e
000002e0: 0d70 a0bd 2de1 af3e 15b8 a63c 2296 52be
000002f0: df56 83be ed41 e63d 7f04 3d3e 5bc9 853d
00000300: ae6b dc3e 71d9 da3d 330d 8ebd ffd9 833b
00000310: 0837 92be 6184 c8bb fce3 5c3d 9a12 0b3e
00000320: 01ac 2dbe a090 61be 849f 213d 6956 7dbd
00000330: 91e1 1dbe 48a1 b0bd 914a a63e e164 5e3e
00000340: da08 aa3e fe4d c63b c831 8a3e 6a08 8ebd
00000350: 6ef6 873d ad83 25be 3847 183e d73f 3c3e
00000360: e948 883e 10c9 7cbc a26e 063e 939c bc3d
00000370: da41 993e 9335 d9bc 9aa5 b23e b379 aa3e
00000380: 5a30 a7bd 2d8e bb3e ae43 483d 22fc 86bd
00000390: 48a8 2c3e e0db 253b 3c62 9bbe 854b 5d3c
000003a0: 42c4 783e 5e72 75be 8862 cabd 910a 073e
000003b0: 135e a1bc e1b9 e6bd 04c2 3abe 8a6b 233b
000003c0: 90a2 ab3c fed9 c03d b7a5 bdbd 8349 4dbe
000003d0: 1fec a83e bd4d 90be c601 98be 9c61 05bd
000003e0: d91d 05be 4ebd 833e e3c2 d33d 4c3d c7bd
000003f0: 1d28 273d 4401 5a3e dd70 07be 9303 fa3d
-0.14825681 0.01708157 0.12956773 0.061027072 -0.07692733 0.46114874 -0.16204555 -0.07564632
-0.008675553 -0.22018206 0.069132276 -0.08697838 0.1398216 -0.05297484 0.023538705 0.10985942
-0.0023232584 0.46873093 0.2931101 0.021102993 -0.14683652 -0.044717874 -0.1780067 -0.29986745
-0.10991523 0.050752774 0.30151436 0.061692186 0.0683125 -0.3058871 -0.17583075 0.014291314
-0.17615993 -0.20114322 -0.36140034 -0.10240711 -0.2107985 0.06464326 0.045349807 0.13281336
0.02455581 0.12083123 0.182128 -0.13284211 -0.10926437 0.2040465 -0.11545976 -0.17529507
-0.116606936 -0.06304568 0.104102984 0.03492702 -0.11277023 0.11848503 -0.1973551 0.059704408
0.17160279 -0.1822426 0.111910835 0.16493493 -0.098193444 -0.13234381 -0.42487365 -0.114279486
0.01765183 -0.19370407 0.23007898 0.044927016 0.22800589 -0.15915614 0.2075551 -0.028162228
-0.15042272 -0.25730112 -0.0048809587 -0.16694398 0.020971619 -0.16161491 0.09664515 0.3325431
0.13583866 -0.19720161 -0.378782 0.060806263 0.09295377 0.19343084 -0.18020622 -0.037068136
-0.03650203 0.25998572 -0.10422548 -0.13221613 -0.09271841 0.17002691 -0.08493376 -0.36717868
0.104142606 0.16082017 -0.043038815 -0.024489291 -0.044225346 0.10332105 0.08115328 0.35205743
-0.16615431 -0.38458377 -0.17188372 0.1646191 0.30972734 0.33615375 -0.041860096 0.1160269
0.18670541 -0.102476716 -0.09524953 -0.50790894 -0.2305346 0.092241205 0.18437049 0.18872553
-0.3555608 -0.07586252 -0.14857468 -0.17842719 0.027410557 -0.022749716 -0.11680782 -0.14591135
0.09436488 0.13642338 -0.1529119 -0.34838286 -0.6106486 -0.27248466 0.1418255 0.18895945
0.09168371 0.21649572 0.23963332 -0.07992863 -0.04853529 0.08267325 0.044925872 -0.16796899
-0.030348958 0.25311196 0.19081949 -0.1755345 0.34751257 -0.103129335 0.00849964 -0.2624856
0.021395687 0.21178235 0.5290218 0.2389324 -0.14457045 0.077557825 -0.024198497 0.33264574
-0.038565926 -0.05514203 0.047221575 -0.06119364 0.12516911 -0.002755196 -0.13309672 0.15653074
0.18185501 -0.23520628 -0.05898118 -0.031015314 -0.12065866 0.04860747 -0.0200201 0.29060292
-0.14420798 0.050080754 0.22354543 0.34635758 -0.12988174 0.04097212 0.1684432 0.1346045
-0.07833872 0.34351483 0.020351449 -0.20565084 -0.25652215 0.11243043 0.18458746 0.06532546
0.43050903 0.10686005 -0.06936111 0.00402379 -0.2855761 -0.0061192964 0.05392836 0.13581315
-0.16960146 -0.22027826 0.039458767 -0.061849985 -0.15418078 -0.08624512 0.32478765 0.2171817
0.33209878 0.006051778 0.26991105 -0.069351986 0.066387996 -0.16163512 0.14870918 0.18383728
0.26618126 -0.015428796 0.1312814 0.09209552 0.29933053 -0.026514804 0.3489197 0.33295974
-0.08163519 0.3663191 0.04889267 -0.06591059 0.16861069 0.0025308058 -0.30348384 0.013506775
0.24293616 -0.23969409 -0.098820746 0.13187625 -0.019698178 -0.11265922 -0.18238074 0.0024935924
0.02095154 0.09416579 -0.09260123 -0.20047574 0.32992646 -0.2818431 -0.29688853 -0.03256379
-0.12999667 0.25730366 0.10339906 -0.09728488 0.04080974 0.21289545 -0.13226648 0.12207713

classifier.weight f4 [1, 16]
00000000: ef60 64be e9da d33e e7ef b7be f4a4 e83e
00000010: ec4a 833e 72e8 893e 88eb f33d 78ea b5be
00000020: e736 df3e 581d cb3e ba9c 043f 5d0d cf3d
00000030: 9d7d f0bd ae51 c23e b82a e33e d164 22bf
-0.22302602 0.41377953 -0.35925218 0.4543835 0.25643098 0.26935154 0.119101584 -0.35530448
0.43596575 0.39670825 0.51801646 0.10109971 -0.11742709 0.37952942 0.4436853 -0.63435084

exp_avg f4 [10, 5]
00000000: d452 8e3b a4c2 3aba 6751 d73a 49cc 93ba
00000010: d294 5abb 076d fbb9 c0d2 02ba 573a be39
00000020: d050 1d3a 4c8b 2d3a e70f 32ba 7b36 763a
00000030: a2fa 84b9 e5b0 2e3a 13a7 88ba 4225 65b7
00000040: 8ee9 87b2 60ea b0b7 fb7d 55b7 bf3c e0b7
00000050: 56b0 36bb 5130 b139 5460 a8b9 3254 d3b9
00000060: e506 763a 48df c23a 035c 2939 537f 0d3a
00000070: 6c08 8aba 1c2f 19bb e07a 75bb f367 903a
00000080: 0a51 3cbb 0303 74b9 ebf1 373b fa35 89b8
00000090: 3ec7 83b9 44da 453a ba2e 5b3a 034c d53a
000000a0: 3506 9033 41f5 a4b2 f9ec 0b31 b350 bf31
000000b0: 316b 2cb3 0000 0000 0000 0000 0000 0000
000000c0: 0000 0000 0000 0000
0.00434337 -0.00071243406 0.0016427458 -0.0011276092 -0.0033352864 -0.00047955682 -0.00049905106 0.0003628309
0.00060011167 0.0006620183 -0.0006792531 0.00093922735 -0.00025363738 0.00066639326 -0.0010425769 -1.3658138e-05
-1.5822277e-08 -2.1089974e-05 -1.2725121e-05 -2.6731168e-05 -0.00278761 0.0003379607 -0.00032115227 -0.00040307787
0.00093851826 0.0014867568 0.00016151373 0.0005397696 -0.0010531074 -0.0023374027 -0.0037457272 0.0011017307
-0.0028734826 -0.00023270775 0.0028067778 -6.542723e-05 -0.00025134714 0.0007547478 0.000836115 0.0016273264
6.7066516e-08 -1.9203641e-08 2.0361866e-09 5.568006e-09 -4.014436e-08 0.0 0.0 0.0
0.0 0.0

exp_avg_sq f4 [10, 5]
00000000: 3736 c138 8792 b736 00cd c637 788a 5b37
00000010: 0523 2438 4763 3e38 2e78 4736 3050 cc36
00000020: 2bd1 3737 316e 4338 33f4 3538 5d9a 3d37
00000030: 46d2 1737 a305 0b38 3554 0e39 a162 8231
00000040: 0a3c 8d30 2470 b630 d340 c130 a6cb 2e31
00000050: c03b 8b39 0969 1038 3c2d 5d38 0654 3339
00000060: c1e4 b439 22a4 3138 5554 9b36 b81c 9b36
00000070: 2439 8c37 4750 5d38 60c1 c438 d3cc 3437
00000080: a59e 5338 031e ec38 8756 df38 b1b2 1f38
00000090: 03ca 5536 c9d0 b836 767e 6937 398f 5838
000000a0: 7710 c731 435f 4d31 272f f530 a512 3231
000000b0: c17b fb31 0000 0000 0000 0000 0000 0000
000000c0: 0000 0000 0000 0000
9.2130555e-05 5.470883e-06 2.36989e-05 1.3085657e-05 3.913326e-05 4.539199e-05 2.9723265e-06 6.089009e-06
1.0956351e-05 4.6594247e-05 4.338119e-05 1.1301218e-05 9.0492595e-06 3.3145432e-05 0.00013573545 3.7947108e-09
1.0276164e-09 1.3274115e-09 1.4061022e-09 2.5436093e-09 0.00026556663 3.4430097e-05 5.2732634e-05 0.00017102071
0.0003450271 4.235295e-05 4.6291775e-06 4.6227033e-06 1.6715909e-05 5.276527e-05 9.382027e-05 1.0776525e-05
5.045407e-05 0.00011258947 0.000106495856 3.8074973e-05 3.185706e-06 5.507933e-06 1.3917326e-05 5.16318e-05
5.793534e-09 2.9885576e-09 1.7839498e-09 2.5913007e-09 7.3191306e-09 0.0 0.0 0.0
0.0 0.0

exp_avg f4 [16, 8]
00000000: 255b d739 0c76 193b 1cb3 8fba 566a bd3a
00000010: 0b69 dc3a 72f3 ac3a 6c5b a9ba 9359 163a
00000020: 40d1 51ba 4f6e 2bbb e1e3 c93a 042f 16bb
00000030: 3326 72bb 1998 e7b9 9f07 783b a461 da38
00000040: 6008 5b36 b64c 333a 94eb 5139 3a95 1039
00000050: 81ee b138 0648 5e39 e942 53b9 2781 2839
00000060: 503c 1e38 91da 03bb 1f37 f339 49fb acba
00000070: ee48 86ba 7497 3eba eaeb f53a 60ca 80b9
00000080: 02a4 8139 14ef 6f3a e28a f1b9 7551 0f3a
00000090: aacf 9539 b93f 0c3a 2e4e 28ba 3a7c 7439
000000a0: 37b1 00bb eae9 c0ba 46ae df3a 6377 92ba
000000b0: 9aec f8ba 3db2 aaba a8e4 963a b2a2 0dba
000000c0: 22ea 2838 8687 b93a 37ff 14ba cda2 963a
000000d0: 9a48 b939 18a3 e939 6d5e 4aba 6964 db38
000000e0: 6cec 8639 5164 68ba 6441 11ba 8ffe dd39
000000f0: 7969 d339 ca40 21ba 2cf8 27b8 3ff2 b9b8
00000100: 809c b036 cebb 1d3a 508e 8439 2202 9639
00000110: 7749 f238 d64c 8eb9 7097 9639 55cb 0239
00000120: 1024 623a b41e 333b 3b8f c63a ba8a ccba
00000130: 3ab2 f5ba a36a b1b9 44e9 2b3b 906c cbba
00000140: 554c 7e36 e72c eb38 536b e236 a09f e238
00000150: 0ad8 08b8 bc92 9a38 f222 bcb8 5e59 b7b6
00000160: e41b 61bb b110 4fbc ff1f 123b be84 a6bb
00000170: f945 d03a 2aa2 66bb 0b29 4d3a 0542 22bb
00000180: 1b4a b03a 4a29 bb3b f097 4cba 352a 4a3b
00000190: e462 6c3a 04bf db3a 1ea6 47bb 9da2 f93a
000001a0: b566 edb7 d731 1b38 81dd a1b7 47af 5737
000001b0: dc4a 9fb7 bd03 2b38 16e9 07b8 698d edb7
000001c0: 93ff 423a cc10 343b a8b1 75ba 16f6 5d3b
000001d0: d74f 983a dae1 cf39 366f 46bb 80b7 ba39
000001e0: 8409 163b 1e5b b13a 8613 40bb bfc0 cab9
000001f0: 7cf6 003b 3fa8 283b 6b31 33b7 80f8 ed3a
0.00041075904 0.0023416309 -0.0010963413 0.0014451246 0.0016815973 0.0013195111 -0.0012920923 0.00057353935
-0.0008003898 -0.0026158278 0.0015402996 -0.0022916207 -0.0036949038 -0.00044173075 0.003784634 0.00010413237
3.2638418e-06 0.0006839739 0.00020019553 0.00013788501 8.4844425e-05 0.000211984 -0.00020147454 0.00016069842
3.7726306e-05 -0.002011929 0.0004638964 -0.0013197447 -0.0010245123 -0.0007270493 0.0018762324 -0.00024564844
0.00024726993 0.0009152752 -0.00046070578 0.0005467155 0.00028574216 0.00053500716 -0.0006420341 0.00023315931
-0.0019636878 -0.0014718149 0.0017065487 -0.0011174496 -0.0018991411 -0.001302309 0.0011512237 -0.00054029666
4.0272374e-05 0.0014154769 -0.0005683782 0.001149261 0.00035340042 0.00044562737 -0.0007719759 0.000104614366
0.0002573462 -0.0008865046 -0.0005541055 0.00042342066 0.0004032364 -0.0006151317 -4.004703e-05 -8.866609e-05
5.2634277e-06 0.000601706 0.00025283033 0.0002861182 0.00011553143 -0.00027141598 0.0002872306 0.00012473513
0.00086265896 0.0027331533 0.0015148887 -0.0015605309 -0.0018745132 -0.0003383952 0.0026231566 -0.0015520025
3.789338e-06 0.00011214037 6.747819e-06 0.00010806252 -3.262613e-05 7.370624e-05 -8.971048e-05 -5.4642287e-06
-0.00343489 -0.012638257 0.0022296903 -0.005081742 0.0015889994 -0.0035191872 0.0007826245 -0.002475859
0.001344982 0.005711709 -0.0007804623 0.0030847911 0.00090174214 0.0016765301 -0.0030464004 0.0019045655
-2.8300428e-05 3.7001297e-05 -1.9295841e-05 1.2855809e-05 -1.8989136e-05 4.077306e-05 -3.2403586e-05 -2.831845e-05
0.0007438596 0.0027475832 -0.0009372481 0.0033868602 0.0011620474 0.0003965039 -0.003027869 0.00035613403
0.0022893855 0.0013531183 -0.0029308512 -0.0003867205 0.0019678166 0.0025735048 -1.0680737e-05 0.0018155724

exp_avg_sq f4 [16, 8]
00000000: 572a 7e37 3a5b ab38 66f5 9d37 1f69 e537
00000010: f98c 2838 02bf 1a38 b711 3d38 14f6 ae36
00000020: 72e2 dd37 e283 e138 016f df37 ce16 b938
00000030: e50d 2b38 8bab 5d37 dd9f c738 7e91 de36
00000040: bf9b 6a35 28af 0e38 2292 5235 0948 8c37
00000050: da79 f236 9c8d 4436 6616 aa37 c35f 1436
00000060: 2b49 7e34 b4c4 9737 ce05 f634 d325 be36
00000070: 1a2f 3736 0f5b 9a36 4d3f 7437 b30c 1c36
00000080: dfa3 5536 dacf 3c38 d926 fd36 9f3f 5237
00000090: bdcf 6436 73ba 6937 3f81 c737 cbae 2336
000000a0: 176c 2938 ce23 b138 5caa 2238 1d62 2738
000000b0: f982 ce37 57ca 1538 df95 1338 57f1 8a37
000000c0: a3fb 6c36 5df0 1f38 5a3c a236 6a18 0238
000000d0: 186e 8736 755d 8036 737e 2c37 10b3 8a35
000000e0: db9c 3d38 311f 3139 df5d 9537 a4ea 8838
000000f0: c720 ec37 4dae e337 f63c 5338 e3e1 5e38
00000100: 44cb a536 9e5b 5439 f82a 9837 57e9 4738
00000110: 6b24 0737 8ad3 3037 3946 5f37 d2a9 a737
00000120: 3d6b 4038 4f22 da39 5b43 c037 f32a aa38
00000130: 4234 0538 0a8c bd37 3375 ac38 d91e 9438
00000140: e696 b936 7f18 6037 c427 1736 df90 f036
00000150: d5a5 0036 dd82 5635 3a30 6736 abb6 6336
00000160: 66f0 2539 b222 4f3a 5228 1f39 c631 4c39
00000170: 3b0e 3c38 0640 cc38 7328 5d38 eaea 0039
00000180: c765 2e38 f092 b139 3530 3b37 8afa 6139
00000190: 2f7c 3238 55d0 f737 e018 b038 7292 8c38
000001a0: 4e89 9832 582d a233 b03a 5832 5ac6 9d32
000001b0: b041 a832 1ae0 9032 6f86 7e33 6a97 e832
000001c0: 45f0 2e36 4f4a 2638 2a47 2936 eb87 1038
000001d0: 089c 4d36 aa33 3b36 c019 cc37 5afb b736
000001e0: a5c8 3739 e177 c639 aa4b 9c38 63d4 a138
000001f0: cf38 9338 af42 6a38 9285 0439 722c 7239
1.5149438e-05 8.170908e-05 1.8830131e-05 2.7347878e-05 4.0185612e-05 3.689435e-05 4.507761e-05 5.2142514e-06
2.64507e-05 0.00010753401 2.6635362e-05 8.825735e-05 4.0782517e-05 1.3212567e-05 9.518836e-05 6.633053e-06
8.7398433e-07 3.4018565e-05 7.844375e-07 1.6722845e-05 7.2263474e-06 2.9288703e-06 2.027601e-05 2.210946e-06
2.3682212e-07 1.80922e-05 4.5825294e-07 5.6668446e-06 2.7296542e-06 4.6001583e-06 1.4558272e-05 2.3253203e-06
3.183486e-06 4.501627e-05 7.54451e-06 1.2531788e-05 3.4095567e-06 1.3931293e-05 2.3782834e-05 2.4390636e-06
4.0393406e-05 8.446687e-05 3.878247e-05 3.9907278e-05 2.4618103e-05 3.5712812e-05 3.518711e-05 1.6563265e-05
3.5313212e-06 3.813241e-05 4.835002e-06 3.1017153e-05 4.03613e-06 3.825577e-06 1.028144e-05 1.0333915e-06
4.5207194e-05 0.00016891655 1.7805896e-05 6.5286906e-05 2.8148655e-05 2.7141674e-05 5.0363094e-05 5.3139298e-05
4.9410464e-06 0.00020252026 1.813982e-05 4.7662612e-05 8.055106e-06 1.053967e-05 1.3308186e-05 1.998703e-05
4.587624e-05 0.00041605762 2.2919548e-05 8.1142316e-05 3.175834e-05 2.2595766e-05 8.223429e-05 7.062936e-05
5.5309965e-06 1.3357144e-05 2.25239e-06 7.1694226e-06 1.9170013e-06 7.9911644e-07 3.4449754e-06 3.3931963e-06
0.00015825182 0.00079015933 0.00015178442 0.00019473498 4.4835946e-05 9.739403e-05 5.2728177e-05 0.00012294544
4.157962e-05 0.00033869548 1.1157293e-05 0.00021551005 4.2554162e-05 2.9541707e-05 8.396967e-05 6.702998e-05
1.7757568e-08 7.551961e-08 1.2586199e-08 1.8367405e-08 1.9587645e-08 1.6865716e-08 5.926125e-08 2.707721e-08
2.6067876e-06 3.964669e-05 2.5224385e-06 3.445886e-05 3.0638203e-06 2.7895244e-06 2.4330686e-05 5.483086e-06
0.00017526986 0.0003785482 7.452753e-05 7.716638e-05 7.020088e-05 5.585205e-05 0.0001263826 0.00023095476

exp_avg f4 [8, 4]
00000000: f615 12ba 4d82 b0ba 95d2 b138 fabc d6bb
00000010: 2a52 a736 d7a2 ebb8 65e6 01b8 2705 8fb9
00000020: e843 da3a 2418 553b 7db5 173b 8a07 3f3c
00000030: 4547 83b9 0a85 9d39 af14 e038 c5e3 8bb9
00000040: 10e0 b1b8 95c3 8fba 6a6d 9dba 53b2 20ba
00000050: eebd 96b9 42f1 08bb e5f7 50ba 849b 8bba
00000060: 05c7 2d39 8317 00b9 3164 6db9 5355 ffb9
00000070: 0000 0000 0000 0000 0000 0000 0000 0000
-0.00055727304 -0.0013466567 8.479242e-05 -0.0065532895 4.986553e-06 -0.000112360045 -3.097057e-05 -0.00027278924
0.0016652318 0.003251561 0.0023148947 0.011659512 -0.00025039367 0.00030044495 0.00010685005 -0.00026681848
-8.4817526e-05 -0.0010968322 -0.0012010757 -0.0006130088 -0.00028751738 -0.0020895754 -0.00079715095 -0.0010651206
0.00016572706 -0.0001221579 -0.00022639406 -0.00048700962 0.0 0.0 0.0 0.0

exp_avg_sq f4 [8, 4]
00000000: 5c50 9f37 93a8 b838 e21c 4037 26af da39
00000010: f457 8332 8c57 5435 da48 0734 5474 6936
00000020: d709 3b38 06f0 2739 10bb 4438 8540 003a
00000030: bf0f 4b35 4034 6e37 d6e3 4336 9b31 a537
00000040: 15fb b237 db5c f638 005a c737 6f5d 0b3a
00000050: eb2b b735 109d 3738 13b9 8836 a9c5 cf38
00000060: 867c 4336 916f 0438 9dff 1036 5545 5b38
00000070: 0000 0000 0000 0000 0000 0000 0000 0000
1.8991697e-05 8.805203e-05 1.1450817e-05 0.00041710696 1.5290404e-08 7.910355e-07 1.2599358e-07 3.4787417e-06
4.459344e-05 0.00016015777 4.6904257e-05 0.00048924267 7.5646307e-07 1.4198071e-05 2.9189882e-06 1.9692632e-05
2.1336173e-05 0.0001174749 2.3764558e-05 0.0005316352 1.3647344e-06 4.3776876e-05 4.0746613e-06 9.907346e-05
2.9129747e-06 3.1575157e-05 2.1606459e-06 5.227824e-05 0.0 0.0 0.0 0.0

exp_avg f4 [32, 17]
00000000: 1afc 263a 0f55 ceba 8827 8bba 9575 df38
00000010: 0996 73b7 3b9a 26bb 160f 4e3b 834e b3bb
00000020: b04a 883a 6315 bc39 c5ca ab3b db37 8a3b
00000030: 8dbd 04bb e2c0 a8bb 3a71 ff3a eac9 a73a
00000040: ba60 973b 0ee8 a0b9 6954 c939 7ead 8238
00000050: e47e 12b9 443f b1b8 f180 c439 83f2 5bba
00000060: d95c 423b e0dc 04ba 8b8e 0c3a 37e6 98ba
00000070: a0d8 03bb bc93 cc38 3db0 5f3b 4d47 85ba
00000080: be68 8ab7 a70d f8ba e1b0 b83a cfa4 103b
00000090: a3bf 153b c0a4 3239 2857 5c3a 57fa 3239
000000a0: 1a23 03bb 0718 863b 2d4e 1eba 079c 2e3a
000000b0: 3616 5abb 5fa2 97bb 783b 453a c4ec b03b
000000c0: d1d5 11bb b561 acba 3f2c a0bb 9379 833a
000000d0: 0011 763b 0549 103b 51ec cf39 1944 593a
000000e0: 6da3 853b ded9 50bb 8824 0c3b 3eaa 10ba
000000f0: 9abc c03a 6768 35b9 da04 8aba 0278 9bba
00000100: c91c 8b3b 39b0 4dbb a5c7 96b9 8662 4dbb
00000110: 3a9a c4b8 781a 403b e595 323a 6470 8dba
00000120: cc72 a539 6003 00bb 273d 883b 8922 63bb
00000130: e4fe 88b9 1da7 313b 6b9a da3b 3747 3b3b
00000140: 8f3b 40bb 88d0 aab9 0dde d239 6f74 b23a
00000150: fe00 823a 10a8 0c3b 3e9d d53b cd4b 773b
00000160: f192 e43a 606d 0e3b d905 0b3c 6ebd dbbb
00000170: 44e3 b43b 41fb 34bb d394 7d3a f129 53bb
00000180: 91f0 c6bb 1fd5 c03a cdc4 3b3c 36f8 bfbb
00000190: a28e 49ba 4b04 09bc f6fc 79ba c91e 28bb
000001a0: 0d2c 87ba f125 23ba 12bb 54ba 1881 3fb9
000001b0: 47a0 203b 3479 33bb 0562 863a 76a4 023a
000001c0: e3de 073b 793a 883b c5f6 19ba 3e2d eaba
000001d0: 99fd 843a 150b 17b9 8b36 873a 1c20 b0ba
000001e0: d5ab 01bb a9b6 7bbb b551 d3ba 6d9b 8dba
000001f0: 9684 05bb 2adc f63b 9db9 2bbc b6eb ca3a
00000200: b8c1 833a 9115 273c c0e5 2e3c 886c 0dbb
00000210: 9209 1fbc de33 823b ee7c 233b fa1d 0e3c
00000220: ea18 87ba bf95 e0ba 0912 d0ba 9f5c 8ab9
00000230: ffc2 87ba da42 4b39 a5ac c53a fb81 dfba
00000240: b40f 2dba 4301 66b9 bc30 073b 153a 993a
00000250: c4a4 fa3a 9c04 52bb aae0 a93a f097 383a
00000260: 563f 2e3b 02e3 75bb fd17 caba e6dc fbba
00000270: 382b b2ba 7c79 f6ba 29b3 a9bb 3915 b23a
00000280: f349 f5ba 750b 143b 51c7 a0b9 908d 1c3a
00000290: 3c18 6139 8196 11b8 e170 4ebb e2f7 f13a
000002a0: 07bc 573a f3e2 673b a9a9 dfb9 9299 47ba
000002b0: 773e 5cba a5b6 ad39 488b 9839 ba79 75b9
000002c0: 5ed9 c8b9 dbb2 14ba 9c96 143a ba24 b1b9
000002d0: 4e35 c639 62e3 fb37 e577 953a 6d56 30ba
000002e0: 4596 aeb7 1f87 5739 5007 1a3a e2a0 03ba
000002f0: 9066 14b9 316a 6fba a4f2 8e38 f0d1 3db9
00000300: 695a d1b9 98ce 88b9 2c75 4fb9 0cd1 5639
00000310: ddd1 b5b9 384d f9b9 fe97 14ba 1354 2c3a
00000320: 7076 93ba 9267 ad39 108f 2a3a d609 be3a
00000330: af2d f93a dc29 953b 67d0 063b e7b7 973a
00000340: 05b9 b23a 1c2b 163b d6d1 81bb 700b 7e3b
00000350: 9005 27ba c65b 6db9 3ed8 71bb 57b2 8abb
00000360: 88b3 8bbb dc6b be3b 401a 70bb 7f87 31ba
00000370: b909 92bb 2a1d a23a 3733 be3a b7a3 37bb
00000380: 421e 66b8 21e5 323a b1d0 153b 50d3 7f3b
00000390: 2153 0fbc 9ea3 a43a 6837 db3a c64a 263c
000003a0: f97a 2a3c e6e3 27bb 1ddf 2bbc e508 30ba
000003b0: 9c06 dbb9 4dbb b13b 7991 14bb 1021 e6ba
000003c0: 8273 06ba 159f b1ba 7960 95ba 0642 99ba
000003d0: caa9 1c3b 3c8d ccb9 5112 a137 08ad ac3a
000003e0: 61ea 3e3a b536 933a da20 d33a 15ee 10ba
000003f0: c240 c73a d178 fcb7 4bd5 023a d9a7 893b
0.00063699635 -0.0015741902 -0.001061664 0.0001065537 -1.45188615e-05 -0.0025421518 0.0031442097 -0.005472006
0.0010398235 0.0003587409 0.005242678 0.0042180843 -0.0020254583 -0.0051499465 0.00194887 0.0012801264
0.004619685 -0.00030690472 0.00038400598 6.2311985e-05 -0.00013970915 -8.451802e-05 0.00037480102 -0.0008390324
0.0029657392 -0.00050683133 0.0005361817 -0.0011665289 -0.0020118132 9.754996e-05 0.0034132146 -0.0010168344
-1.6499656e-05 -0.0018924967 0.00140908 0.002207089 0.002284982 0.00017036777 0.0008405321 0.00017068662
-0.0020009936 0.0040922198 -0.0006038871 0.0006660823 -0.00332774 -0.0046275104 0.0007523815 0.0053993184
-0.0022252689 -0.0013151678 -0.004888087 0.0010030739 0.0037546754 0.002201618 0.00039658186 0.00082880404
0.0040783198 -0.003186814 0.002138408 -0.0005518532 0.0014704645 -0.00017300398 -0.001053001 -0.0011861327
0.004245375 -0.0031385554 -0.00028758976 -0.0031339242 -9.374735e-05 0.0029312652 0.0006812497 -0.0010790941
0.00031556783 -0.0019533262 0.0041576806 -0.0034658036 -0.0002612985 0.0027107664 0.00667124 0.0028576383
-0.0029332375 -0.00032580295 0.00040219762 0.0013615022 0.0009918509 0.0021462478 0.006518989 0.003773439
0.0017438811 0.0021732673 0.008485281 -0.0067059314 0.0055202562 -0.002761558 0.00096733606 -0.0032221044
-0.006071158 0.0014711953 0.011460495 -0.0058584465 -0.00076887954 -0.00836284 -0.00095362903 -0.0025653115
-0.0010312811 -0.000622361 -0.0008115034 -0.0001826327 0.0024509595 -0.0027385475 0.0010252601 0.0004983613
0.0020732216 0.004157361 -0.00058732583 -0.0017866266 0.0010146379 -0.0001440461 0.0010315938 -0.0013437304
-0.0019786258 -0.0038408434 -0.0016122373 -0.0010803767 -0.0020373217 0.00753357 -0.010481265 0.0015481624
0.001005224 0.010198013 0.010674894 -0.0021579582 -0.009706872 0.003973468 0.002494629 0.008674139
-0.0010307108 -0.0017134472 -0.0015874516 -0.0002639042 -0.0010357796 0.00019384493 0.0015081359 -0.0017052287
-0.0006601766 -0.0002193498 0.0020628413 0.0011690283 0.001912259 -0.0032046204 0.0012960632 0.00070416834
0.0026588044 -0.003751934 -0.0015418526 -0.0019215613 -0.0013593202 -0.0018804516 -0.0051788283 0.0013586647
-0.0018714055 0.0022589837 -0.0003066608 0.0005972022 0.000214667 -3.471086e-05 -0.0031500387 0.0018460716
0.00082296174 0.0035383075 -0.0004266028 -0.00076141313 -0.0008401642 0.00033133212 0.00029095472 -0.00023410367
-0.00038308924 -0.00056724035 0.00056681945 -0.00033787434 0.00037805218 3.0027415e-05 0.0011403529 -0.00067267456
-2.0812391e-05 0.00020554334 0.00058757234 -0.0005021227 -0.00014152587 -0.000913295 6.816283e-05 -0.00018102652
-0.00039930947 -0.00026093866 -0.00019784708 0.00020486506 -0.0003467937 -0.00047550513 -0.00056684006 0.00065738073
-0.0011250507 0.00033074297 0.00065063033 0.0014498781 0.0019010807 0.004552109 0.0020570995 0.0011575193
0.0013635462 0.0022913879 -0.003961782 0.0038764141 -0.00063713733 -0.0002263627 -0.0036902572 -0.0042326855
-0.004263345 0.0058111977 -0.003663674 -0.00067722047 -0.0044567254 0.0012368311 0.0014511113 -0.0028021166
-5.4864453e-05 0.0006824304 0.0022859985 0.0039035864 -0.008747847 0.0012560969 0.0016724886 0.010149663
0.0104052955 -0.0025618016 -0.010490206 -0.00067151926 -0.0004177586 0.0054239393 -0.0022669716 -0.0017557461
-0.00051289063 -0.0013551438 -0.0011396549 -0.001169265 0.0023904913 -0.0003901514 1.9201225e-05 0.0013174126
0.000728285 0.0011231514 0.0016107813 -0.0005528641 0.0015201794 -3.0097e-05 0.00049908896 0.004200917

exp_avg_sq f4 [32, 17]
00000000: 46bd d038 4a98 9c38 0547 2638 db26 3538
00000010: 7899 f037 8edd 8939 528a 4039 66b6 2939
00000020: 9411 5138 66f5 1d38 fad4 4239 27c1 8439
00000030: 8a7c 6e39 1b15 3739 a1fe 0339 73ad b438
00000040: 718e 5639 f713 aa38 b1ee fb37 918e 0a37
00000050: 2988 0a38 ef50 7037 df6c 1a38 d164 e037
00000060: a6f9 9238 c9b8 4e37 e874 4a38 d65a 3c39
00000070: 4624 e938 daad 2238 ca08 b238 03e6 4a38
00000080: fb12 ce37 a807 8238 4319 1b38 5b10 2438
00000090: 5550 7b37 c9b4 7f37 b349 6d37 d71b 7638
000000a0: 29df 0438 2da1 9138 f8f9 8a37 36bb ee37
000000b0: c9a4 fb38 82e5 e538 bafb 7f38 e1d0 9638
000000c0: a520 3d38 7e4f ec37 5b1e a938 25df 3238
000000d0: 4ece b938 3b56 ea37 516f 9937 9680 b537
000000e0: e749 0539 6ac1 9a38 ddb9 6a38 f55a 0238
000000f0: 916e 0f38 d0c7 b338 5774 f738 a9dd 1639
00000100: a289 e038 dec9 a338 52d0 5738 a4a2 db38
00000110: 9736 0b39 77c7 ce38 0513 3e38 e2f7 7d38
00000120: 9f03 0638 ac13 9939 8e3f 4439 27a5 3239
00000130: 8952 6f38 6f26 c138 1b5e ae39 aa03 9439
00000140: fcba 6c39 94b9 8c39 e601 5039 9735 d938
00000150: 43c9 8539 8272 0c39 730a e439 688a c338
00000160: ac7e 8338 465e b838 48ab 263a 69e8 c439
00000170: 688c df39 ebde 1c39 bdf5 4e39 53bc 473a
00000180: 6663 473a 3de6 173a 77f9 333a 8704 c039
00000190: ab29 8b39 9a00 0b3a 977f 8a37 280a 3738
000001a0: e316 0637 4584 1137 3dae 3637 70af f137
000001b0: 37f9 0a38 fc80 2f38 f090 2037 ed1e e036
000001c0: 4a89 3938 1cb9 8438 2405 5838 5802 5a38
000001d0: 1efc 0c38 8759 d437 2ad9 5e38 cebc c139
000001e0: 10b0 9839 9a99 0539 dbcc 2c39 3ab4 e238
000001f0: a05e 133a 81f4 de39 bc60 233a daa0 0939
00000200: 235d 2b39 b577 8b3a 6500 793a 0a2a 373a
00000210: b35e b439 0b57 c839 25bf 8839 4e31 cc39
00000220: 7719 3d38 086a 2a38 4720 7537 a617 9837
00000230: 087b 7237 d26a 3539 5630 e038 2f53 2238
00000240: f8d7 ff37 9967 8a37 e178 5738 29e7 ab38
00000250: a693 1a39 792b c138 92c1 1638 4d48 fe37
00000260: db66 b038 5dba f037 a729 ed37 c0e2 b037
00000270: c886 3337 61d2 3a37 a6af 9538 1d7b b837
00000280: ec41 5637 fad2 9537 d0d9 3b38 e0a7 d538
00000290: d52f 0638 c978 2c38 2ef0 4c38 9a7f 3938
000002a0: c1ca bf37 b65a 5038 2b46 c136 a308 4c37
000002b0: 845b bd36 c1cd 2236 d062 6036 d9d2 9b37
000002c0: d769 2437 bef9 2037 4f6c bf36 2f01 9736
000002d0: f6a7 5737 aad2 c337 5320 bc37 482a 9537
000002e0: e29d 1737 e6bd ec36 fd80 6b37 d361 d636
000002f0: 2726 2237 3988 8c36 3a0c 3936 8064 4836
00000300: 7606 4038 b371 c237 b993 ed36 46fe fe36
00000310: a28b 1337 a9a7 b537 8162 b437 69ba f837
00000320: bfa7 3238 f75e 9037 3498 3037 4841 de37
00000330: 4387 0939 4a58 2139 fee6 2038 3608 5f38
00000340: 3627 2f38 da23 c538 182f 8238 4370 0239
00000350: daaf cc37 6028 5b38 25d1 1039 e707 9d39
00000360: 160c a738 0b34 7e39 0615 f038 c5d1 9138
00000370: 4d94 6639 b843 d738 0ed6 6639 712c 6439
00000380: 90ed 6f38 b8cb 8938 c8a5 cb39 2fdf 8739
00000390: cc2f 073a c45a c738 c7fd 4939 cf22 923a
000003a0: 0acd 4e3a d1ba d639 dc97 013a 0d5d 8039
000003b0: b295 5c39 f842 b539 bb9a fc37 7383 af37
000003c0: 4b3d ab36 69a7 5c37 3b1a 1737 458d 3338
000003d0: 708a 4d38 0236 8137 a1b2 6437 07ad 6837
000003e0: bc83 e937 7380 0238 f40f 8138 501c 1338
000003f0: 6c9a f137 31fb 9237 7622 3738 b100 6b38
9.953468e-05 7.467026e-05 3.9643626e-05 4.318995e-05 2.8681694e-05 0.00026295747 0.00018362075 0.00016185045
4.9845854e-05 3.7660262e-05 0.00018580622 0.00025320912 0.00022743843 0.00017460102 0.0001258799 8.615376e-05
0.00020461694 8.1099504e-05 3.0032681e-05 8.258635e-06 3.3028573e-05 1.4323959e-05 3.6817855e-05 2.6749827e-05
7.008323e-05 1.23215805e-05 4.826943e-05 0.00017962916 0.00011117062 3.878572e-05 8.4893385e-05 4.8374768e-05
2.4565952e-05 6.200309e-05 3.6978407e-05 3.911588e-05 1.497947e-05 1.5241277e-05 1.414346e-05 5.86769e-05
3.1679087e-05 6.94416e-05 1.6567283e-05 2.8458988e-05 0.00011999306 0.0001096232 6.1031176e-05 7.191464e-05
4.5091514e-05 2.8170409e-05 8.064202e-05 4.2646327e-05 8.859915e-05 2.7935128e-05 1.8290857e-05 2.1636759e-05
0.00012711399 7.3793184e-05 5.5963046e-05 3.1079126e-05 3.419683e-05 8.572603e-05 0.00011799548 0.0001438769
0.000107067885 7.8100464e-05 5.1454008e-05 0.00010473028 0.0001327641 9.859999e-05 4.5317243e-05 6.055076e-05
3.1951462e-05 0.0002919709 0.00018715693 0.00017036927 5.7058907e-05 9.210116e-05 0.0003325798 0.0002823149
0.00022576371 0.00026841147 0.00019837133 0.00010357348 0.00025517688 0.00013394098 0.00043495334 9.324105e-05
6.270161e-05 8.7913635e-05 0.00063579204 0.00037557192 0.00042638485 0.00014960363 0.00019737236 0.000761931
0.0007606059 0.0005794501 0.0006865481 0.00036624467 0.0002654319 0.0005302519 1.6510296e-05 4.364006e-05
7.992351e-06 8.67347e-06 1.0888613e-05 2.8811133e-05 3.3133863e-05 4.1843377e-05 9.570489e-06 6.6793204e-06
4.4235298e-05 6.32873e-05 5.15032e-05 5.1977433e-05 3.3613404e-05 2.5314059e-05 5.3131174e-05 0.000369525
0.00029122876 0.0001274109 0.00016479513 0.000108100896 0.0005621705 0.0004252531 0.0006232371 0.0001312526
0.00016342527 0.0010640534 0.0009498655 0.00069871603 0.00034402832 0.00038211825 0.00026082355 0.00038946647
4.5084827e-05 4.0629908e-05 1.4610653e-05 1.8130824e-05 1.44529695e-05 0.00017301299 0.000106901556 3.870128e-05
3.0498937e-05 1.6499123e-05 5.137257e-05 8.196972e-05 0.00014741588 9.2110546e-05 3.5943063e-05 3.0312827e-05
8.411492e-05 2.8697012e-05 2.8271998e-05 2.1086424e-05 1.0700613e-05 1.1135447e-05 7.137591e-05 2.1991838e-05
1.2770743e-05 1.7860428e-05 4.4787128e-05 0.000101879006 3.1992637e-05 4.1120486e-05 4.8861075e-05 4.4226275e-05
2.2863389e-05 4.9675546e-05 5.760017e-06 1.2161358e-05 5.6432928e-06 2.4259646e-06 3.3436118e-06 1.8575623e-05
9.7998045e-06 9.594891e-06 5.7048524e-06 4.5002885e-06 1.2854105e-05 2.334391e-05 2.2426399e-05 1.7781873e-05
9.037061e-06 7.055455e-06 1.4037124e-05 6.3890852e-06 9.6648355e-06 4.1881835e-06 2.7574265e-06 2.986082e-06
4.5782384e-05 2.3179547e-05 7.0803476e-06 7.599391e-06 8.794394e-06 2.1654954e-05 2.1503542e-05 2.9650708e-05
4.2594733e-05 1.721036e-05 1.0525855e-05 2.6494861e-05 0.00013115727 0.00015387047 3.83621e-05 5.317499e-05
4.175977e-05 9.40037e-05 6.207655e-05 0.00012439587 2.4400582e-05 5.225127e-05 0.00013810823 0.0002995126
7.965432e-05 0.00024242715 0.00011448008 6.9532114e-05 0.00021989756 0.000102646125 0.00022014251 0.0002176033
5.7203288e-05 6.570615e-05 0.00038842694 0.0002591549 0.00051569636 9.505966e-05 0.00019263393 0.001114929
0.00078888296 0.0004095645 0.0004943588 0.0002448339 0.00021036601 0.00034572906 3.0112793e-05 2.0922836e-05
5.1033326e-06 1.3152e-05 9.006409e-06 4.2808493e-05 4.900474e-05 1.5403148e-05 1.3631449e-05 1.3868564e-05
2.7837108e-05 3.1114043e-05 6.154171e-05 3.50739e-05 2.8801347e-05 1.7521526e-05 4.3662694e-05 5.602901e-05
