_stacked-ensembles/resources/ip2.pth (torch_old, 19484 bytes, 25 tensors)

dataset_stats f4 [14]
00000000: 21ff 1b42 355e 7840 8397 3948 de93 2541
00000010: 01de 2241 e3a5 2540 acad d340 c1a8 b43f
00000020: b459 6b40 9fab 2d3f b54e db44 8f22 0e43
00000030: bcc5 2242 e0de 1242
38.99915 3.88075 190046.05 10.3486 10.1792 2.58825 6.61495 1.4114
3.67735 0.6784 1754.4596 142.135 40.6931 36.71765

dataset_stats f4 [14]
00000000: 3353 5a41 3043 ba3f b234 cd47 9fd3 7240
00000010: 5049 2540 f99b be3f a2b4 8740 458f ce3f
00000020: 19e8 553f 0128 ef3e 8d40 1246 6343 fd43
00000030: 09a1 4441 8b0a fb40
13.645312 1.4551754 105065.39 3.7941663 2.5825996 1.4891349 4.2408 1.6137472
0.8355728 0.46710208 9360.138 506.52646 12.289315 7.845037

embeddings.0.weight f4 [16, 8]
00000000: e799 6dbf 3456 1dbf 3eb5 54bf bd02 68bf
00000010: 2af1 60bf 2402 44bf c523 2cbf 4fd8 023f
00000020: 7c9a 3e3f 89a9 d93e 353b 0b3f 4f1f 853f
00000030: c374 6ebf d36f 253e 5275 113e f1d6 08bf
00000040: 44d5 5fbd 6154 7ebc 6aa7 e63d fb2d 3e3f
00000050: 9a13 763f 8223 40bf 8323 bdbe c918 c0bd
00000060: 59ca e8be 0b87 9cbe 02aa 10bf 91ce 373f
00000070: f884 463e 79d6 e6be 5416 d43e e297 3f3c
00000080: 8b5f 6abf 9221 4a3f 6a95 433e a6e6 ddbe
00000090: 643a 4b3f 3625 c13f a659 6cbf 2687 babc
000000a0: e9ba ea3f 0f4d 793e 51c8 29bf 01d9 103e
000000b0: bbda 9a3f 5807 0b3e 27f4 803e ca6a 0f3f
000000c0: b46c 713f 81e4 d3be f32e 13bf 97d9 cc3e
000000d0: 3e5f 2e3f 7826 4cbe d3c3 9b3f e6ce 1a3e
000000e0: 85f6 49be 8831 d23e 2772 3e3f 563b c03f
000000f0: dfea 52be 8266 b8bf 0a3c 363d 3dba d2be
00000100: 2f8d c73f 5f94 a6be c3e8 d23f 81a4 ee3e
00000110: 0d14 763d 21ff df3e b9e0 a1bf 773d 833f
00000120: fc79 b4bf c057 f2bf 3cdf ae3d 8260 6dbf
00000130: c2a6 49bf 3a15 68bf 2da0 ef3d 0a45 1440
00000140: f8f9 09bf 2cf2 bebe 20eb 4a3f 756c a93e
00000150: 2d0c 463f 640b f2bf a59f 96be ad60 483f
00000160: a637 01bf 9df4 2e3e 570b 0d3f 5fae 073f
00000170: 8057 46bf a05c d43e 6484 c2bf 7246 0bbf
00000180: 34ca 563f 23d3 d6bf a036 28bf 8c90 393f
00000190: 6c0a a4bf aaf6 3cbf 5b00 a8be 79a1 1d3f
000001a0: fd17 cbbe 4b84 95be 11c5 87bf c7ec 993e
000001b0: da32 c5be f748 bf3e b825 623f a88c 9d3f
000001c0: c284 003f c389 e7bd 54de 3b3f 07f0 bd3f
000001d0: 01c0 bcbf 3684 873f d53d 73be 7439 a1be
000001e0: a34b 5dbf ee12 de3f 8f41 edbd a2c8 56be
000001f0: 2b48 163f 1414 5bbf 006d 82be 46ca 3e3f
-0.9281296 -0.6145966 -0.83089054 -0.9062918 -0.8786799 -0.76565766 -0.6724208 0.5111131
0.74454474 0.42512158 0.5438722 1.040018 -0.93146914 0.16155939 0.1420491 -0.53452975
-0.054646745 -0.015523047 0.112624004 0.7428891 0.9612366 -0.7505418 -0.36941156 -0.093797274
-0.4546688 -0.3057178 -0.5650941 0.7179957 0.19386661 -0.45085505 0.41423285 0.0116939265
-0.91552037 0.78957474 0.19099966 -0.43340033 0.7938597 1.5089481 -0.9232429 -0.022769522
1.833829 0.24345802 -0.66321284 0.1414528 1.2098001 0.1357702 0.25186273 0.5602232
0.9430649 -0.41385272 -0.57493514 0.40009758 0.6811408 -0.1993655 1.2169136 0.15117988
-0.19722946 0.41053414 0.7439293 1.5018108 -0.20597409 -1.4406283 0.04449085 -0.41157714
1.5589961 -0.32535073 1.6477283 0.46609882 0.060077716 0.43749335 -1.2646705 1.0253133
-1.4099727 -1.8933029 0.08538672 -0.92725384 -0.7877008 -0.9065739 0.11700473 2.3167138
-0.5389705 -0.37294137 0.7926502 0.3309056 0.7736233 -1.8909726 -0.29418674 0.78272516
-0.5047554 0.170855 0.5509543 0.53000444 -0.77477264 0.41476917 -1.5196652 -0.54404366
0.8390229 -1.6783184 -0.6570835 0.72486186 -1.281568 -0.7381388 -0.3281277 0.6157451
-0.3966674 -0.29202494 -1.0607015 0.3006346 -0.3851536 0.37360355 0.88338804 1.230855
0.5020257 -0.11305573 0.7338612 1.4838876 -1.4746095 1.0587223 -0.23754056 -0.31489146
-0.8644354 1.7349527 -0.1158477 -0.20974973 0.5870387 -0.8557751 -0.25473785 0.74527395

embeddings.1.weight f4 [6, 3]
00000000: 6093 4e3f b32a eebe d4ed 5b3f 7a8c 913e
00000010: e3e5 423f a13a 20bf 07ca b5be 7f31 133e
00000020: a598 493f 2610 48bc 9f8a 0240 72af 1abf
00000030: f66f 9b3e 5814 533f e9b9 583e c996 9d3f
00000040: 2af3 afbf daa0 88bf
0.80693626 -0.46516952 0.8590977 0.28427488 0.7613203 -0.6258946 -0.35505697 0.1437435
0.7874854 -0.012210881 2.0397108 -0.6042396 0.30358857 0.8245292 0.21164669 1.2311641
-1.3746083 -1.0674088

embeddings.2.weight f4 [6, 3]
00000000: 398d 043f 1b39 5dbf 8be3 8bbe 7ea9 8a3f
00000010: c900 8a3e 017b 493f 59fd 5a3e faac 8f3f
00000020: eb65 fa3e c06f 63bf 1011 8c3f 6faf 243f
00000030: 20a9 693f 1181 00bf ca77 98be 0dbe 613e
00000040: b5f0 f6be 4588 223f
0.5177799 -0.8641526 -0.2732204 1.0832975 0.26953724 0.78703314 0.21385707 1.1224663
0.48905882 -0.8884239 1.0942707 0.6433019 0.9127369 -0.5019694 -0.29778892 0.22045155
-0.4823052 0.6348918

embeddings.3.weight f4 [2, 1]
00000000: 5cc1 94be dc5d a83f
-0.29053771 1.3153644

f.0.weight f4 [32, 15]
00000000: e141 cb3d 62a0 cd3e 1951 63bd fbe1 543f
00000010: e712 d2bd fd35 673e 309c b73d 5a69 20bf
00000020: 8e98 b63e 0016 a63e 7093 b4bc e959 c73e
00000030: 269f 2c3e 2ec9 623c b311 27be aa2b f7bd
00000040: 153a 9e3e a0e0 d5be 8a0a 943e 3cbf 593d
00000050: a7e2 1cbd 60c2 3f3e b3f5 843e 0b64 a33e
00000060: 8a39 60bd 9c65 c03c 703c 923e 8713 0dbe
00000070: e343 e83d 418f 9e3d 4a87 a03e 7818 d1be
00000080: 3b50 2d3e eec3 5bbe 3ba1 a63e a51f 963e
00000090: 00a6 593e e36c a43d f424 43be 4354 d4bd
000000a0: c6e9 23be d0f5 48bf 618e 863d 20fd b6be
000000b0: 3b37 963d 1385 e73e a05a a0be fea6 51bd
000000c0: 61aa abbe 043a f63c be61 533e 5da5 433c
000000d0: 0503 bc3e 8382 69be 2e9e 393e 1e6b 683e
000000e0: efc7 64be 629e cabe 5408 783e ea2e 9dbd
000000f0: b37a fbbe 0505 453e 318c 6abe 3385 ecbe
00000100: cb27 d93e 64ce c9be df07 dcbe 6bf7 853e
00000110: 59ad 90be be07 123e 1039 05be 152e d2bd
00000120: 2e71 af3e 8827 e6bd c0fe f8bd 3e20 5c3b
00000130: a068 2d3e 568c 9a3e d06b a6be fa3e 4cbe
00000140: a4f8 c4be 74b4 69be e8da 8ebd 15cb e5be
00000150: 5ffe f83e febe fd3e a887 a2be 44c0 e8bd
00000160: a366 8dbe 1aa5 52be c3db e7bd 960d 6a3e
00000170: af07 0c3f a04a 8e3e 31dc cb3e 5762 0a3e
00000180: cbcb 15be b7bf 00be 9094 adbd 7271 87be
00000190: 7599 313e a699 093f 580a 33bd 631b 963e
000001a0: 1191 db3d 6665 d23e a583 28bc c55c 9a3e
000001b0: 33bb 54be 744e f83d ded4 6bbe 4ac4 16be
000001c0: 595f d4be 1785 e63e a2d0 ae3d 577d f73e
000001d0: 30b3 e43e e471 dd3d bd7e bf3e 9555 013f
000001e0: 7013 c3be 7580 95be 1b74 debe 6537 3e3e
000001f0: 600d ed3c 0f12 7fbe 335d 953d 691b 69be
00000200: c360 803e 7990 19be 7eb9 0d3e 8aaf 61bd
00000210: 0928 8ebe afa8 1d3e 29c3 8f3d 7e5e 0ebf
00000220: 063c 483e ec83 1fbf 46c5 df3e b9bf 6c3b
00000230: 1279 f03c d655 153f 3765 d43d b33d 9ebb
00000240: 4d33 a83d 77bd 6fbe 9671 82be ba51 64be
00000250: d7a3 283f ab80 a83d dcdd 7f3e a160 bfbe
00000260: e694 153e 7bb5 98be 2a0e 56be c99b 0abf
00000270: 1524 613e a28a cd3c 8e97 b3be ddf8 e1be
00000280: c9d4 03bf c73b 963e c7b1 16bf d722 d8be
00000290: 730a 913e b0ac 37be b00b ef3e 208f c83d
000002a0: d6b3 64bd 7758 b63e 5fb5 c83d 03bd 113e
000002b0: 8784 c0bc 0763 9d3e 0f79 b6be 1f3f da3e
000002c0: 494d 18be 93ec 71be 105b a43d f4e8 c13e
000002d0: 031e c8bd f442 dfbe e16e 613e cc97 d43d
000002e0: 4f2c 3f3e d475 e53e b817 923e f481 49bf
000002f0: 55e3 bfbe 22d2 9c3d e0fa d63d 7fca 91be
00000300: 36c5 6b3d 486e a1bd 9061 3abe 959d 24bd
00000310: a46f f73e c66f 4fbf 41d3 6d3e 904c 513e
00000320: 05f0 cabe a96b 7fbd d58f c1be 7913 c9be
00000330: 35b3 893c d3be abbc 005b fabe 5144 70be
00000340: 4baa 30be 2deb 52bd 729c 7bbe 1e72 4dbe
00000350: 2009 4abe 6bf8 33bf 04dd ddbd 2fe1 d73d
00000360: 9941 01bd 4701 b1bc d834 22be f456 00be
00000370: c2a0 36be 50c9 0cbf 8fac cdbe b3e4 073e
00000380: bddc d4bd 321d b6bc d29e 66be 88fe dd3d
00000390: 04c3 7ebe e5eb c33b b2a4 633e c246 07bd
000003a0: 3ec5 0fbf 5520 f8be 8d37 2cbf 3b11 8cbe
000003b0: e1c0 813e 7c9a 2a3e 574e a6be 2d13 7abc
000003c0: c69c 48bc d291 e93c 3220 7b3e d2cf 12bc
000003d0: cce2 c43e 4550 fbbe d5c5 37bd eab4 d8bc
000003e0: fe2e b03b cae2 33bf f1c1 d33e 09ef 36be
000003f0: 9d28 223e 9f42 843d 6c83 2abe c823 c23e
0.09924675 0.40161425 -0.055497263 0.8315732 -0.102575116 0.22579189 0.08965337 -0.62660754
0.35663265 0.3243866 -0.02204296 0.38935784 0.16857585 0.01384191 -0.16315345 -0.12068875
0.30903688 -0.41772938 0.2891429 0.05316089 -0.03830209 0.18726492 0.25968704 0.31912264
-0.054742374 0.023485951 0.28561735 -0.1377698 0.11341073 0.07742167 0.31353217 -0.4083898
0.16925137 -0.2146146 0.32544884 0.29321018 0.2125473 0.08028581 -0.19057065 -0.10367634
-0.16007146 -0.7850008 0.06570125 -0.35739994 0.07334753 0.45218715 -0.3131914 -0.051184647
-0.33528426 0.03005696 0.20642754 0.011941281 0.36721054 -0.22803693 0.18126747 0.22697112
-0.22341894 -0.39573961 0.24221927 -0.07674964 -0.4911705 0.19240196 -0.22905041 -0.46195373
0.42413172 -0.39415276 -0.42974755 0.26165327 -0.28257254 0.14260766 -0.13010049 -0.10262696
0.34266037 -0.11238009 -0.12157965 0.0033588554 0.16934443 0.30185193 -0.3250413 -0.19945899
-0.38470948 -0.22822744 -0.06975347 -0.44881502 0.4863157 0.49559778 -0.31744123 -0.11364797
-0.27617368 -0.20570794 -0.11321213 0.22856745 0.54699224 0.2779131 0.3981643 0.13514076
-0.14628522 -0.12573133 -0.08475602 -0.2645374 0.17343695 0.53750074 -0.043711036 0.2931777
0.107210286 0.41092986 -0.010285293 0.30148903 -0.20774536 0.12124339 -0.23030421 -0.14723316
-0.41478994 0.45023414 0.08535887 0.48337814 0.4466796 0.108127385 0.3740138 0.5052121
-0.38100767 -0.29199567 -0.43447956 0.18575819 0.028937042 -0.24909233 0.07293167 -0.22764362
0.25073823 -0.14996518 0.13840291 -0.055099048 -0.2776492 0.15396379 0.07019646 -0.55612934
0.19554147 -0.6231067 0.43705195 0.0036125018 0.029354606 0.583341 0.10370868 -0.0048291325
0.0821291 -0.23412119 -0.25477284 -0.22296801 0.65875 0.082276665 0.24986976 -0.3737841
0.14607581 -0.2982596 -0.2090384 -0.5414396 0.2198642 0.02509052 -0.35076565 -0.4413518
-0.5149656 0.29342481 -0.58865017 -0.4221408 0.28328285 -0.17936969 0.46688604 0.09792924
-0.055835567 0.35614368 0.09800219 0.14232258 -0.023500694 0.30739614 -0.35639235 0.42626283
-0.14873232 -0.23625402 0.08025181 0.37873042 -0.09771349 -0.4360577 0.22014953 0.103805155
0.18669246 0.44816458 0.2853372 -0.7871392 -0.37478128 0.07657267 0.10497069 -0.28474805
0.057561122 -0.078823626 -0.1820128 -0.040189344 0.48327363 -0.8102993 0.23225118 0.20439363
-0.39636245 -0.062358532 -0.37805048 -0.3927267 0.016809085 -0.020965016 -0.48897552 -0.2346356
-0.17252462 -0.051493812 -0.24571398 -0.20063064 -0.19730043 -0.7030093 -0.10833171 0.10540997
-0.0315567 -0.021607054 -0.15840471 -0.1253317 -0.17834762 -0.5499468 -0.40170714 0.13270836
-0.10393665 -0.022230718 -0.22521523 0.108395636 -0.2487908 0.0059790486 0.22230795 -0.033026464
-0.5616034 -0.48462167 -0.67272264 -0.27356896 0.25342467 0.16660494 -0.32481644 -0.015263361
-0.012244409 0.028511915 0.24524 -0.008960681 0.38454282 -0.49084678 -0.0448664 -0.026453454
0.0053766957 -0.7026793 0.41358903 -0.17864622 0.15835805 0.064580195 -0.16651696 0.37917924

f.2.running_mean f4 [32]
00000000: 6d41 8f3e 45b8 c33e e642 13bf 7251 2cbe
00000010: 4299 90be 4fa3 81be 3bb1 ae3e 7d2e 173f
00000020: 9f9f 123e 0ba0 4dbe ff26 9b3e 2ff3 533d
00000030: 4ff5 07bf 501e efbe 6073 20bf 71a3 cfbe
00000040: 042a 7abe 9414 25be 5de4 0e3e 21d5 cfbe
00000050: 6a39 e7bd 6ad3 0cbf 1df6 b9be 0b25 22bf
00000060: aa5c 6d3e f96a 43be d154 b7be 749d 63be
00000070: b36d 0b3e 3c0a af3e 5269 fdbe 27c3 e03e
0.27979603 0.38226524 -0.57523954 -0.16827944 -0.28241926 -0.25319907 0.3411959 0.5905531
0.14318703 -0.20080583 0.3030319 0.05174559 -0.53108686 -0.46702814 -0.6267605 -0.40554383
-0.2443009 -0.16121131 0.13954301 -0.40592292 -0.11290248 -0.5501009 -0.36320582 -0.63337773
0.2317988 -0.19083776 -0.35806897 -0.22228032 0.13616066 0.34187496 -0.49494416 0.4389889

f.2.running_var f4 [32]
00000000: 77df a23e 4267 093e 78ae e23d 47e0 8a3e
00000010: 94df d43e 83c9 783e fd62 b03e 9f8f 383e
00000020: b758 9e3e 904a 8b3e d05e c73e 1f85 f03e
00000030: 3337 043e f78c 0c3e 054b 213e f781 193e
00000040: 7c01 c23e 4619 a43e 6a2d d23d 5141 503e
00000050: 6b3f bf3e af22 e43d 5c51 953e 07cd 903e
00000060: 2b53 603e 50b3 cd3e d195 663e b08d 883e
00000070: 5be3 653e 67c0 8b3e 9fd1 5b3e bb51 693e
0.31811115 0.13418296 0.110684335 0.27124235 0.41576827 0.2429562 0.34450522 0.18023537
0.3092706 0.27205324 0.38939524 0.46976563 0.12911682 0.13725649 0.15751274 0.14990984
0.37891757 0.32050532 0.10262568 0.20337416 0.37353072 0.11139428 0.29163635 0.28281423
0.21906726 0.40175867 0.22518088 0.266706 0.2245001 0.2729523 0.21466683 0.22785084

f.3.weight f4 [16, 32]
00000000: 4cdc 44be 6ca9 f83d 98c9 4abe f954 b1bd
00000010: 6621 153e be86 bebe 35a3 78bc 1626 31bc
00000020: 8cf9 18be 9df4 7ebc 69e7 a7bb e3cd 8cbd
00000030: 9bff 79be 1b3a 0fbe 6ac7 4bbe 9e43 93be
00000040: d6fe 103e 32fe 153e b38b 3fbe 52b2 8d3e
00000050: fc73 e83d fef5 52be ab03 bfbb 3beb 8f3d
00000060: 218c 133e 8f94 2abe c180 90ba 84ce c1bd
00000070: 634d 123e 42ec e63d 6495 f8bd 94e9 163c
00000080: 520a 5b3d 6d58 c03d 8324 563e 840a de3b
00000090: f881 473e 5890 0ebd 1090 833d 9239 debc
000000a0: 29bc 86be cec4 c93e f48a 863d d3e0 92bc
000000b0: e393 073d 6d93 653c 4598 473e f72c a63d
000000c0: 0236 b6be 1c83 163f 565d 353e 860b 443e
000000d0: 5789 4cbe 3fea d1bd 384d 0fbe d192 4c3e
000000e0: 856a 573e 8ab8 2abc 6c28 9e3e 0458 953e
000000f0: a965 313e c587 5dbe 8dc8 973c 9eda 3ebe
00000100: 31dd 043f 09f4 aa3d b31d df3d b715 123e
00000110: 22ba 53be 0cb0 d93d 7c34 d8bd 20ef a3bc
00000120: bfb2 87be 966b 3fbd d5a7 213e 714e 70bc
00000130: cece 0abe b30a 353e 30f0 363f 38f5 0c3e
00000140: d287 3c3e 378e b93e 916f 933d 49ce 66be
00000150: dc4c be3e 0b5c d83d 584a b53d f1a3 4ebd
00000160: 939e dd3d d8d3 a13d 28d6 d43d f958 8a3e
00000170: 304d 683c 97b3 a83d e4b6 bdbd 8d0e 443b
00000180: 58c7 38bd cc53 ad3e 6c03 19bd 024c 283e
00000190: bec8 96bd a3d5 5b3d 2857 f3bc 002d 243e
000001a0: fd9c 2abc ff7b a4be dfe4 a43d 4eef 4ebe
000001b0: 4733 a33c 2048 f23c 2979 2e3d 5f04 8e3e
000001c0: 2912 a33d 4b25 be3d 8ace 20bc 3683 0f3f
000001d0: ec23 b5bd b672 9e3e 2337 9f3d 5a7c 4b3e
000001e0: 4a9b 48be 9922 163e f4d3 3cbe b6b1 da3d
000001f0: 3225 98be 18a8 cfbd 4acd 213d 68c3 723d
00000200: d0f6 0cbf 819d 623e 13e0 93bd aa90 c3bd
00000210: 931c 9e3e 3442 213e dddb b63d 72e3 51be
00000220: 4931 2a3e 43ea 4dbe de9c 483e 60e1 2bbe
00000230: 7a51 263d f8d3 51be 4809 8f3c ef97 9cbd
00000240: 0396 e1bd cbd8 8abe 4cd5 d7bd 5fb0 2bbe
00000250: 6148 9fbe d473 79bb 21dd 693d 5c15 66be
00000260: 83b6 09be 9c99 14be 1a04 993e 7fa9 f93d
00000270: 9c7f 16be 7d12 23be 04b4 503e ce51 353e
00000280: 3788 113b 8354 89bd 6af2 f1bd 6b86 55be
00000290: 775c 613d c889 9dbe 2d15 2a3e 4613 b2bd
000002a0: 4403 4e3e c00e 0abd e8f7 2b3d 14f6 313e
000002b0: ca92 f03d 386b b4be 22bb 563d 2790 843e
000002c0: 00ba 4fbc c014 2cbd 1be1 98be 4ad4 59bd
000002d0: 8093 de3d 0f2f 253e ea16 9abe db52 06be
000002e0: 8912 03be de15 bdbd 641d 193d 6650 72be
000002f0: 1dc2 d0be 193b 3e3c eb1a c6bd 4231 1a3f
00000300: e565 5cbd c62a 1d3e 2985 953e 4ff9 b9be
00000310: 0288 64bd 9cf0 4ebe 9dd7 2b3e 7451 80be
00000320: a30d 5b3e b4c3 abbd daec aebd 057b 3d3e
00000330: c59f febc 23af 563e 8946 d7bc 4567 cbbd
00000340: daff 6d3e 748e 5dbe ea85 cabe d92a 9b3e
00000350: 22fb 13be ab15 fbbd ebce c2be ac29 be3e
00000360: 7b33 643d ff19 8ebe 57be 823e 65da 02be
00000370: 1b04 dfbd 0e3a 183e e953 77be 83a8 82be
00000380: 7c21 363e 3962 933e 11a6 51be d41c fa3b
00000390: fd1d a9bd 7c98 1fbe 6aad 06be 3359 a7ba
000003a0: 2778 75be 8798 19be fcc4 83be c4ac f83e
000003b0: 19de 5ebe f163 5abe b445 ecbe ec06 89bb
000003c0: 232b 42be e0e2 a13d 5f63 1fbf 3990 b63e
000003d0: 533c 2e3f a35c d3bd d0a3 883e 65b9 9c3e
000003e0: 9a76 183e 6458 f039 5a1e 60be 560c 3dbe
000003f0: 64c2 f7bd 28f2 c53d 8a16 013e 251e d43d
-0.19224662 0.1214169 -0.19803464 -0.086587854 0.14563522 -0.37212175 -0.01517563 -0.010812303
-0.14938945 -0.01556125 -0.005124022 -0.06875207 -0.24413912 -0.13987009 -0.19900289 -0.28762525
0.14159712 0.14647749 -0.18705635 0.2767511 0.11350247 -0.20601651 -0.0058292947 0.070272885
0.14408924 -0.16658233 -0.00110247 -0.09463218 0.14287333 0.11275531 -0.12137869 0.009210963
0.05347664 0.09391866 0.20912366 0.006776156 0.19483173 -0.034805626 0.06423962 -0.027127061
-0.2631543 0.39407963 0.06569472 -0.01792947 0.03310002 0.0140122 0.1949168 0.08114045
-0.3558808 0.5879381 0.17711386 0.19145021 -0.19974266 -0.10249757 -0.139943 0.19977881
0.21036728 -0.010419974 0.30890214 0.29168713 0.17323937 -0.21633823 0.018528247 -0.18638083
0.5190001 0.08347327 0.108943366 0.14266096 -0.20676473 0.106292814 -0.105568856 -0.020011485
-0.2650356 -0.04673346 0.15786679 -0.014667139 -0.13555452 0.17679863 0.7146025 0.13765419
0.18411186 0.36241314 0.07199014 -0.22539629 0.37168014 0.10564431 0.088520706 -0.050449315
0.10821261 0.07901734 0.103924096 0.27021006 0.014178559 0.08237379 -0.09263399 0.00299159
-0.045111984 0.33852994 -0.03735678 0.16435245 -0.07362507 0.053670537 -0.029704645 0.16032791
-0.0104134055 -0.32125852 0.08051466 -0.20208475 0.019921912 0.029575408 0.042596016 0.2773771
0.07962448 0.09284457 -0.009814868 0.56059587 -0.08844742 0.30946892 0.07774188 0.19871655
-0.19590488 0.14661635 -0.18440229 0.10678427 -0.29715878 -0.10139483 0.03950242 0.059268385
-0.55064106 0.22130395 -0.07220473 -0.09549077 0.30881175 0.1574791 0.08928654 -0.2049692
0.16620363 -0.20108895 0.1959109 -0.16785192 0.040605046 -0.20491016 0.01746048 -0.076461665
-0.110149406 -0.27118525 -0.1053873 -0.16766499 -0.31109908 -0.0038063424 0.05709565 -0.22469085
-0.13448529 -0.14511722 0.29885942 0.12190532 -0.14697117 -0.15925021 0.2038117 0.17706987
0.0022206435 -0.067055725 -0.11813815 -0.20852058 0.055019822 -0.3076918 0.1660964 -0.08695082
0.20118433 -0.033705473 0.04198447 0.17379028 0.11746748 -0.3523805 0.052424558 0.2589123
-0.012678623 -0.042011976 -0.29859242 -0.05318097 0.10867977 0.16131233 -0.30095607 -0.13117544
-0.1280004 -0.092326865 0.037381545 -0.23663482 -0.40773097 0.01161077 -0.09673103 0.6023141
-0.05380811 0.15348348 0.29203156 -0.3632302 -0.05579377 -0.20208973 0.16781469 -0.25062144
0.21391921 -0.08386937 -0.085412696 0.1850396 -0.031082043 0.20965247 -0.026278751 -0.099318065
0.23242131 -0.21636373 -0.39555293 0.30306128 -0.14451268 -0.12259992 -0.3804849 0.37141168
0.055713158 -0.27754208 0.25535843 -0.12778623 -0.10889455 0.14865896 -0.24153103 -0.2551919
0.17786211 0.28785875 -0.20473506 0.007632831 -0.08257673 -0.15585512 -0.1315209 -0.0012767672
-0.23971616 -0.14999591 -0.25736225 0.4856931 -0.21764411 -0.21327187 -0.4614693 -0.0041817334
-0.18961768 0.07904601 -0.62261003 0.35656908 0.680608 -0.103204034 0.2668748 0.30610195
0.14888993 0.00045842223 -0.21886578 -0.18461737 -0.12097624 0.09665328 0.12606254 0.10357312

classifier.weight f4 [1, 16]
00000000: 0830 9e3e b2d3 18be e568 bbbe e2c2 203e
00000010: 9e43 623f 2369 023e 4450 6d3e 3c88 7a3e
00000020: c194 b7be a00e 403e 38b9 673e c57a 0cbf
00000030: 35ec d83e 7fdd 2d3c 23f7 ccbe c869 953e
0.3089602 -0.14924505 -0.36603466 0.15699342 0.88384426 0.12735419 0.2317515 0.24466032
-0.35855678 0.18755579 0.22629249 -0.5487483 0.42367712 0.010611891 -0.400323 0.29182267

exp_avg f4 [16, 8]
00000000: 8dee ff39 21ca 2839 54e5 14bb aa90 ef3a
00000010: 4105 813a ed2d 4cbb f7ad 0a3a ec86 953a
00000020: 02e4 6bb9 3478 87bb 4718 633b 5884 acba
00000030: 3ff8 81bb 56d6 1e3b 48f4 2e3a aa5e 8dbb
00000040: 51c3 0f35 0442 7b35 c8e1 96b6 775f 6d35
00000050: 8612 ea34 d6ce b5b5 b725 b635 5cfb bdb2
00000060: ff4f 2abb 4d25 3d3a 92b2 fc38 36bc b1bb
00000070: 1e6f b63a 942b 4c3b 4519 75bb 1520 cb3b
00000080: 6dfa 873a 9e32 10bb af88 9439 3adf 1dbb
00000090: ce4b 0f3a 373d 0d3b 7982 1cba abf3 163b
000000a0: 64c5 2e3b 3159 2b3b 0b47 cbbb 1711 bc39
000000b0: 0a29 903a 2848 26bb 5f34 163b 55b2 baba
000000c0: 140d 70bb 6a25 033b 61f2 de3a 82f4 453a
000000d0: 30d9 03ba 4bc0 02bb 56a2 1bbb 6bc6 c53a
000000e0: c215 a13a ddbe b3ba 422d f03a 4d03 06bb
000000f0: 85c9 243b b756 2d3b 03af e2ba 4b07 073b
00000100: ccaa 26bb ccb5 233b 7314 8eba 0f1b 033b
00000110: a2c5 d0ba c60e 9dba d35a 5539 c8fe ebba
00000120: 1370 2eb9 ff2d 4138 b1db 09b9 dccb 0939
00000130: e25f 4238 e443 84b8 0f81 0739 0985 2338
00000140: d654 1b3b 32b6 c1ba 6b53 b53a 1eda 10bb
00000150: 3b0d c039 15ef ceb9 98d1 d2ba 4dc6 233b
00000160: b49a 09bb 4781 ddb9 2c89 daba bd65 a33a
00000170: 51f1 ee3a 1ad2 a2ba baf6 f939 a1bc 4f3b
00000180: 6a57 223b c30b ec3b ab7c 153b 6fa5 2a3c
00000190: 5e07 dcba 4205 6e3a f9a6 723b 15c8 54bc
000001a0: 570b 983a d036 0cba 4d3b 36ba 8a3a ad3a
000001b0: edc7 d539 75a1 f5ba 34b2 843a f3c6 6eb9
000001c0: bea2 9139 b0da 2dba 8222 99b8 3848 37b9
000001d0: 7b30 3eb9 f1d2 46b9 5a32 8539 b5e9 ac3a
000001e0: 0000 0000 0000 0000 0000 0000 0000 0000
000001f0: 0000 0000 0000 0000 0000 0000 0000 0000
0.00048815124 0.00016097027 -0.0022719698 0.0018277366 0.0009843485 -0.0031155304 0.0005290205 0.0011408008
-0.00022496286 -0.0041342024 0.0034651922 -0.0013162 -0.003966361 0.002423664 0.0006673974 -0.0043142634
5.3555874e-07 9.360085e-07 -4.4966328e-06 8.84283e-07 4.3599374e-07 -1.3545748e-06 1.3571033e-06 -2.21168e-08
-0.0025987623 0.0007215336 0.00012049558 -0.005424048 0.0013918614 0.0031153904 -0.0037399095 0.006198893
0.0010374315 -0.0022002826 0.00028330597 -0.0024089352 0.0005466313 0.002155138 -0.00059703697 0.002303342
0.0026667947 0.0026145692 -0.0062035373 0.00035870887 0.0010998559 -0.0025372598 0.00229194 -0.0014243821
-0.003662889 0.0020011314 0.001700949 0.0007551388 -0.0005029617 -0.0019951041 -0.0023747883 0.001508904
0.001228981 -0.0013713498 0.0018324035 -0.0020448745 0.002514453 0.002644939 -0.0017294589 0.0020603712
-0.0025431393 0.0024980186 -0.0010839835 0.0020005142 -0.001592804 -0.0011982552 0.00020347098 -0.0018005008
-0.00016635684 4.6057623e-05 -0.0001314718 0.00013141282 4.6342502e-05 -6.306896e-05 0.00012922681 3.8986127e-05
0.002370169 -0.001477903 0.0013834065 -0.0022102664 0.0003663095 -0.00039469512 -0.0016084192 0.0024990023
-0.0020996751 -0.00042248724 -0.001667296 0.0012466233 0.0018229877 -0.0012422234 0.00047676807 0.0031698125
0.002477134 0.0072035505 0.0022809904 0.010415419 -0.0016786864 0.0009079763 0.0037025793 -0.012987156
0.0011600059 -0.0005348744 -0.00069515855 0.0013216299 0.00040775482 -0.0018740135 0.001012391 -0.00022771563
0.00027777808 -0.0006632013 -7.302036e-05 -0.00017479144 -0.00018137872 -0.00018961333 0.00025405252 0.0013192209
0.0 0.0 0.0 0.0 0.0 0.0 0.0 0.0

exp_avg_sq f4 [16, 8]
00000000: 3589 8336 84af 2637 f0e4 1038 54e3 0938
00000010: f9a7 ea37 e0c4 0d38 9a5e 1a37 8533 4a37
00000020: ee85 9737 4dfd ba37 be38 5038 9f4e 3437
00000030: 4a09 4738 9273 d637 b0ff e837 3d01 bc38
00000040: 8682 0e33 5183 0133 611e 2634 925f 0f35
00000050: 2c6c 0433 5976 8e33 b76b 4334 9716 0335
00000060: 7bf1 fb38 ff67 c137 ac23 2639 32ac 2b39
00000070: 9794 b537 d4a9 da38 6d04 b138 1d29 6239
00000080: 1d2a 8f38 e164 c437 e547 e437 4794 5138
00000090: 5748 eb37 0630 8438 ce98 cc37 5832 9d39
000000a0: 5d2c 0138 1718 5d37 d780 5d38 81dc a336
000000b0: 59c0 8936 6874 1637 3863 6637 850d 7237
000000c0: 5a9e fe37 7cf7 4437 787e bf38 a2d1 de36
000000d0: 2748 a736 c9de 0137 d9c0 1338 a35c a437
000000e0: ef59 a837 ebf9 7e38 6d3a ed38 bc50 a138
000000f0: 7c43 fc37 f316 a538 2040 d237 2d8f 4038
00000100: c57e 8a38 d15c 2038 b1bc b038 aba4 a137
00000110: c436 9637 7096 6937 f49b d736 f183 cc37
00000120: 6802 f133 0210 4c34 d06c e533 cc44 9134
00000130: 1896 c533 789d 8133 9169 a134 1ac5 3a33
00000140: 788e 2538 e388 8d37 1986 f537 01a6 8437
00000150: f1bc a438 7aee 3038 319f a837 1268 5138
00000160: c8eb c237 c702 8036 120b 9a37 a326 8e36
00000170: ad73 9e37 02dc 9437 0f0d 7636 85f2 8038
00000180: 6eba b537 fcb3 2638 db79 3637 bbee 8238
00000190: ec24 0c38 2714 1937 5ca5 aa37 5fce fb38
000001a0: c878 be37 1eec 0737 e9c7 3d37 72d0 c337
000001b0: dafc a437 3885 b537 849e a836 5a8c e837
000001c0: a0d1 e136 8a88 ee37 7c51 0138 d18c bd36
000001d0: 9789 c337 73e4 a936 d0ff 3f37 d44c ee37
000001e0: 0000 0000 0000 0000 0000 0000 0000 0000
000001f0: 0000 0000 0000 0000 0000 0000 0000 0000
3.9200772e-06 9.935236e-06 3.454549e-05 3.287506e-05 2.7973192e-05 3.3800374e-05 9.201141e-06 1.2052134e-05
1.8062969e-05 2.229088e-05 4.964391e-05 1.07471415e-05 4.745395e-05 2.5564605e-05 2.7775619e-05 8.964769e-05
3.318066e-08 3.0154585e-08 1.5471007e-07 5.3410724e-07 3.0832027e-08 6.6339176e-08 1.8199977e-07 4.8834175e-07
0.00012013592 2.305582e-05 0.00015844282 0.00016371979 2.1646074e-05 0.00010426683 8.440842e-05 0.00021568355
6.8266156e-05 2.3411996e-05 2.7213197e-05 4.9967577e-05 2.8047869e-05 6.3031956e-05 2.438985e-05 0.00029982883
3.0797313e-05 1.3178235e-05 5.2810497e-05 4.8834486e-06 4.1053104e-06 8.9678e-06 1.37321695e-05 1.4427472e-05
3.0352898e-05 1.1740132e-05 9.131146e-05 6.64052e-06 4.9853875e-06 7.74087e-06 3.5227135e-05 1.959346e-05
2.006904e-05 6.0791073e-05 0.00011311923 7.692116e-05 3.0072166e-05 7.872088e-05 2.5063811e-05 4.590971e-05
6.6039654e-05 3.8233415e-05 8.4274805e-05 1.9269375e-05 1.7906896e-05 1.3922909e-05 6.4256546e-06 2.4380135e-05
1.1222875e-07 1.9004804e-07 1.06834364e-07 2.705841e-07 9.200829e-08 6.035674e-08 3.0065397e-07 4.3485763e-08
3.947175e-05 1.6872253e-05 2.926872e-05 1.5812928e-05 7.8553225e-05 4.218377e-05 2.010129e-05 4.9926406e-05
2.3236396e-05 3.8150206e-06 1.8363386e-05 4.2364277e-06 1.8888933e-05 1.7745424e-05 3.6664458e-06 6.1486884e-05
2.1663694e-05 3.9745108e-05 1.0876417e-05 6.24335e-05 3.3412987e-05 9.124203e-06 2.034258e-05 0.00012007052
2.2706008e-05 8.101602e-06 1.1311823e-05 2.3342876e-05 1.9668067e-05 2.1638916e-05 5.025244e-06 2.7721911e-05
6.729926e-06 2.8435392e-05 3.0831885e-05 5.649032e-06 2.3309882e-05 5.0631875e-06 1.1444048e-05 2.8407587e-05
0.0 0.0 0.0 0.0 0.0 0.0 0.0 0.0

exp_avg f4 [6, 3]
00000000: 3202 c83b 81a9 bebb 22c9 0dba e38b 29bc
00000010: 6919 e63b 95c1 293b e024 023a efca e9b9
00000020: 5c53 d1b9 0682 0cbb 73a0 d93b a95e 643a
00000030: 3b65 2e3b 56f1 d0b9 4f54 d839 faba 8bba
00000040: 8223 8bba 870f 9dba
0.0061037773 -0.0058185463 -0.0005408694 -0.010348293 0.007022072 0.0025902737 0.0004964601 -0.0004459242
-0.00039925694 -0.0021439805 0.0066414415 0.0008711615 0.002661063 -0.0003985266 0.00041261545 -0.0010660582
-0.001061544 -0.0011982777

exp_avg_sq f4 [6, 3]
00000000: 97a2 643a 996a 8a39 fa0d 3338 9263 793a
00000010: 1414 f239 6bc0 1038 5344 5d38 9135 ff37
00000020: be59 1c36 8437 0539 959e b038 0920 7437
00000030: 044c a639 1552 2139 4d5c 9237 747d b038
00000040: 9c69 9138 8459 0437
0.00087217375 0.00026400833 4.2689942e-05 0.00095134333 0.00046172796 3.451148e-05 5.2754138e-05 3.0423313e-05
2.3298048e-06 0.0001270455 8.421872e-05 1.4550992e-05 0.00031718623 0.00015384734 1.7447537e-05 8.4157014e-05
6.93381e-05 7.888655e-06

exp_avg f4 [6, 3]
00000000: 9bb6 99b9 04d0 aab6 a8dd beb9 bf89 bf39
00000010: bef6 03ba aa8e 643a 35f4 19bb aa0a 1fb9
00000020: cb4b 8a3a dbd3 47ba fd1b 9db9 55b2 83b7
00000030: 3694 423b 1622 953b 4149 393b 0000 0000
00000040: 0000 0000 0000 0000
-0.00029318486 -5.090611e-06 -0.0003640477 0.00036532988 -0.0005034021 0.00087187684 -0.0023491506 -0.00015167394
0.0010551153 -0.00076228165 -0.00029966226 -1.569946e-05 0.0029690391 0.0045511825 0.0028272422 0.0
0.0 0.0

exp_avg_sq f4 [6, 3]
00000000: f39b 3837 25af 1936 ea17 2236 dcd4 4e38
00000010: 04f3 3a37 aba0 4137 50c3 f338 04bc dc37
00000020: 0010 a837 8ba4 5a37 a2d0 bf35 1b14 a635
00000030: 9746 8c39 969d 7b38 0609 df38 0000 0000
00000040: 0000 0000 0000 0000
1.1003564e-05 2.2900724e-06 2.41538e-06 4.9312468e-05 1.1143045e-05 1.1541105e-05 0.00011623523 2.6313595e-05
2.0034611e-05 1.3032123e-05 1.4291329e-06 1.2373815e-06 0.00026755474 5.9989827e-05 0.000106351494 0.0
0.0 0.0

exp_avg f4 [2, 1]
00000000: 9003 123b e9a2 c9bb
0.0022279955 -0.0061534536

exp_avg_sq f4 [2, 1]
00000000: 356d bc38 4413 0139
8.98488e-05 0.00012309576

exp_avg f4 [32, 15]
00000000: 2e70 493c 64bf 7ebc ea3b 95bb ac51 8e3b
00000010: bfed 73bc 3613 83bb 209d 67bb d60a e53b
00000020: 9536 72bb e769 9e3c 9a42 e2bb 8ba3 64bb
00000030: d069 473c 15a1 b53b 3bb5 9e3b 21a3 00bc
00000040: 0934 793c 0e99 423c 6f02 85ba b940 5e3c
00000050: da50 103c e834 87bb 7438 97bb 9549 0c3b
00000060: 26d4 bbbb a891 523b 9190 e53a c504 45bb
00000070: 9dda 4cba 6b6d 1abc 6372 dcb9 7916 babb
00000080: a6a7 cdbb f04e eaba b6de f7bb 7be3 6ebb
00000090: 8ee4 83bb 53f3 523b e42f 413a d2be 303b
000000a0: 3740 ceb9 1b31 2ebb 3d04 a43b 8dd3 023b
000000b0: 22f2 253b 8fff af3a 4847 d0ba fafd 91ba
000000c0: be31 aa3a 8090 febb f6a3 13bb 7a16 d3ba
000000d0: ec5b 173b 3376 70b9 c097 3c3b 520c 5fba
000000e0: 65a4 ceb9 5db0 393b eeea a63a 8e7f dc3b
000000f0: efc7 d2bb 457c c93b f54d 943a 7081 133a
00000100: c87d b83b 64e0 2538 2b37 0e3b fefb 82bb
00000110: 2b6e 223b 61d5 f8bb eef4 813b 0f15 403b
00000120: 3b5e bdbb 6097 3cbb 83c5 b3b9 f615 673c
00000130: 40af 30bc 1de4 4b3a ef2c fe3a 10cf 01bc
00000140: e47d 27ba 934a 55bb 407d de3b ca62 2ebb
00000150: ce78 153c 9974 2fbc 2a70 b5ba 3ef6 613b
00000160: 9231 8f3a 0515 3e3b e353 63bb 8f5a b4ba
00000170: d824 20bb c9bd c23a f867 2bba 1a06 c1ba
00000180: 43b8 123b 253b 20bb aa3a 8c3a 1a3a e939
00000190: e10c 20ba 49fb c23a c41d b9b9 b3b2 b5b9
000001a0: 88a9 45ba 6d05 973b 9728 0cbc 047f 8fbb
000001b0: a93a b139 7aae 0fbc c797 7fbb 7567 91ba
000001c0: 0302 993b 5122 b7ba 542b a43b c507 5bba
000001d0: 3654 c3b9 1d43 bc3a 4ada 613a ec27 423b
000001e0: fd00 01bc 3314 f93b 869b cb3b 74e6 1bb8
000001f0: d32c 0c3b 7a52 923b bed7 c136 3b92 c2bb
00000200: 987c 0d3a 4c30 adbb 4ab6 873a 01c6 0939
00000210: f2c2 37bb 63d7 a3ba e955 a3bb 5c99 8b3c
00000220: 5ad2 b3bc 3210 46bc bffe 94ba 598d 9ebc
00000230: c1fd 9bbb 3f75 8fbb 755c 3e3c f9a1 8fbb
00000240: 5185 8b3c 9ea1 83bc c4f9 2c3a 1bc4 833b
00000250: 6fae 083b 488d b93a 19aa 193a 5ee4 403b
00000260: 21b6 99b9 57ce e2ba f812 f93a 941c 683b
00000270: a21b db39 dae4 9cb9 b71b ee38 b3a4 18bb
00000280: db1a 9539 b9b7 e938 bc7d e9ba 5351 5dba
00000290: 150a 89ba dec6 8ab9 7601 b43a ed23 9739
000002a0: be66 a8b9 c2ad bc3a b279 3b3a 8fdc 103a
000002b0: 8768 8eba 6d87 60ba 2d1f cb38 d15d 983a
000002c0: 36eb c1ba 99fe 7a3a 818f 1a3a 3768 2bbb
000002d0: 055c a13b 5001 b3ba 2ff8 f23a 2139 0b3b
000002e0: f436 adbb f64a 03ba 2678 8cba db25 ad39
000002f0: ad90 b2b8 0c1d 113b 92dc 883a 4ad1 063a
00000300: 0ad1 203a deb0 7538 e428 b43a f120 a63c
00000310: ff4c 6bbc cfa8 72bc eff3 f6bb 4665 0dbc
00000320: 7c84 ea38 8172 23bb 7eec 623c 9925 93bb
00000330: 89d5 673c 6f94 49bc 496d f3b9 d714 403b
00000340: dd9e 083b 2bb6 b7ba 047c fc3b e6b7 17bc
00000350: 2d60 18bb 857c 4c3b 4f52 fcbb 2202 56bb
00000360: fdac 92ba d04d 803b 5b66 caba ab58 a13b
00000370: d174 8ebb a290 feba 7367 633b e320 ee3a
00000380: 8c79 dbba 5cfc 803b 7827 693a 00e6 bd3a
00000390: 72d9 043b 1970 0ebb c63c 073b 2432 e939
000003a0: 7da9 b4ba 32dc 9a39 045c a8ba 0a28 003a
000003b0: ce3a b5ba 6bb7 b63a 7507 0f3a 9d3f c039
000003c0: 84ff 3e3a d9cd b5ba 74f1 48ba b47c 16bb
000003d0: efb8 95b9 be7c a8ba 00cc 93ba 9ed6 5a3b
000003e0: 9f16 9939 a1c6 b0b7 eb74 d8ba 35dd ec38
000003f0: d971 0239 882f 6437 d932 deb9 f7d4 583c
0.012294812 -0.015548561 -0.0045542615 0.004343232 -0.014888226 -0.004000093 -0.0035341457 0.006989817
-0.0036958803 0.019337608 -0.006904912 -0.0034887518 0.012171224 0.005542884 0.0048433817 -0.007851393
0.01521016 0.011877311 -0.001014782 0.013565236 0.008808339 -0.00412618 -0.004614884 0.0021406163
-0.005732077 0.0032130275 0.0017514398 -0.0030062657 -0.00078145583 -0.009425501 -0.00042046895 -0.0056789485
-0.0062760888 -0.0017876308 -0.007564391 -0.0036451507 -0.0040250486 0.003218849 0.0007369502 0.0026969207
-0.00039339226 -0.0026579562 0.005005388 0.001996252 0.0025321324 0.0013427603 -0.0015890384 -0.0011138313
0.0012984795 -0.0077686906 -0.0022528148 -0.0016104721 0.0023095561 -0.00022932216 0.0028776973 -0.0008508611
-0.00039413865 0.002833388 0.001273481 0.006729073 -0.0064325253 0.0061488473 0.0011314737 0.00056268927
0.0056302287 3.9548046e-05 0.0021700363 -0.003997325 0.0024784904 -0.007593796 0.0039659655 0.0029309427
-0.0057790554 -0.002877675 -0.00034288698 0.014104357 -0.01078397 0.0007777827 0.0019392053 -0.007922903
-0.00063893036 -0.003254567 0.0067898333 -0.0026609176 0.00912304 -0.010708951 -0.0013842632 0.0034479047
0.0010924807 0.0029004228 -0.0034687452 -0.0013759899 -0.0024436023 0.0014857586 -0.0006538625 -0.001472655
0.002238766 -0.0024449315 0.0010698636 0.00044484512 -0.0006105435 0.0014875914 -0.00035308127 -0.00034656152
-0.0007540216 0.004608801 -0.008554599 -0.004379155 0.00033803776 -0.008769626 -0.0039000378 -0.0011093455
0.0046694293 -0.0013972019 0.005010048 -0.0008355345 -0.0003725604 0.0014363263 0.00086155965 0.0029625846
-0.007873771 0.007601285 0.006213608 -3.7169506e-05 0.0021389022 0.0044653984 5.776964e-06 -0.005937842
0.0005397289 -0.0052852985 0.0010354009 0.000131391 -0.002803978 -0.0012500103 -0.0049846065 0.0170409
-0.02195089 -0.012088822 -0.0011367424 -0.01935451 -0.0047604744 -0.0043779905 0.011618723 -0.0043833223
0.017031344 -0.016068276 0.0006598497 0.0040211803 0.0020855924 0.0014156485 0.00058618333 0.0029432992
-0.0002931813 -0.0017303926 0.0019002846 0.0035417425 0.00041791523 -0.00029925146 0.00011353887 -0.0023291528
0.00028439504 0.00011144527 -0.0017813961 -0.0008442599 -0.0010455275 -0.0002646958 0.0013733346 0.0002882773
-0.00032120006 0.0014395046 0.0007151618 0.000552603 -0.0010864892 -0.0008565102 9.685601e-05 0.0011624639
-0.001479483 0.0009574681 0.00058960175 -0.0026154646 0.0049242997 -0.0013657007 0.0018537099 0.0021243768
-0.005286092 -0.00050084235 -0.0010716959 0.00033025336 -8.5146494e-05 0.0022142557 0.0010441712 0.0005142881
0.0006134665 5.8577272e-05 0.0013745097 0.02027938 -0.014361619 -0.014810755 -0.0075364034 -0.0086301025
0.00011182667 -0.0024940076 0.013850329 -0.004490566 0.014150032 -0.012303456 -0.00046429996 0.0029309297
0.0020846643 -0.0014016082 0.0077052135 -0.009260153 -0.0023250685 0.003120215 -0.0077002416 -0.003265508
-0.001119047 0.003915526 -0.0015441881 0.0049239 -0.0043474217 -0.0019421766 0.0034699112 0.001816776
-0.0016744598 0.0039363336 0.0008894126 0.0014488101 0.002027121 -0.0021734296 0.002063559 0.0004447858
-0.0013783422 0.00029537227 -0.0012844806 0.0004888779 -0.0013826729 0.0013940161 0.0005456128 0.0003666849
0.00072859996 -0.0013870551 -0.0007665374 -0.0022962512 -0.0002855728 -0.0012854559 -0.0011276007 0.0033392082
0.00029199288 -2.1073329e-05 -0.0016514336 0.0001129456 0.00012440178 1.3600926e-05 -0.00042381024 0.0132343685

exp_avg_sq f4 [32, 15]
00000000: eaa6 8d39 0d86 7039 1b62 3139 ddc5 bb38
00000010: 0e44 4639 bd23 db39 f7b6 3d39 5f3a 7438
00000020: 3405 8438 9888 9139 6151 4439 d701 6e38
00000030: 807f bc38 59c3 fc37 1447 6039 371c 9f39
00000040: 283a 9039 0132 2c39 bbb5 4039 cf32 b939
00000050: 21f1 1a3a 09ee db38 e484 0439 bff5 8938
00000060: 2a7c af39 f7ab 6639 1258 9838 4660 1439
00000070: b163 3d38 91db 9e39 0b31 da38 ad68 6138
00000080: f751 7e39 ed61 e237 c6c1 cd38 9a70 a538
00000090: 5f3b 5539 623c 2c38 cc0e 2638 201a 5c39
000000a0: b62a 1039 0def 0638 e487 9238 3ca5 dc37
000000b0: 9b74 f338 0b68 9039 3efc 4b39 eb27 c439
000000c0: 2d94 3539 0851 b439 8e14 013a 16c2 a139
000000d0: 9266 d938 c27b ba38 f925 e439 dced a539
000000e0: 4455 9738 8731 f538 9b3f 4738 9de2 b939
000000f0: 49d8 2538 9c84 f637 9591 5738 9f40 0f38
00000100: b220 dc37 ff43 a738 54e7 5d38 0091 b237
00000110: abea 9f37 27d0 c138 382d 8138 c722 b737
00000120: 9395 1038 aea0 4237 502d a238 76ba bb39
00000130: 4d81 5339 db76 9639 7b50 4b39 f22c 9339
00000140: dc63 033a ded3 0839 35d6 0e39 ac3e 7338
00000150: d1aa 5939 6efb 6839 f8d1 6438 5d8b b238
00000160: 783d 0838 e40d 9639 f4d5 b038 3e83 ec37
00000170: 3e12 6838 f7c8 2c38 e03b 8b38 7008 a638
00000180: 03c9 5c38 126b dd37 816e e237 873f ee38
00000190: 1b8b b538 22ef 0038 2241 1638 9851 4837
000001a0: c341 f738 c48c 1239 d569 3339 c47b d638
000001b0: b96a f338 9ad5 3b39 aa72 ad39 a870 e638
000001c0: 0bbe 8038 f2a0 2a38 d178 6d39 0367 8d38
000001d0: b789 2a38 e8f7 7838 a613 9f37 d824 6139
000001e0: aaf9 0f39 afb1 3538 6af6 2538 5ed2 3a38
000001f0: 7d3e dd38 74f7 d138 f3bc 7a38 c994 dd37
00000200: aa71 a937 29ea ad38 feec 7b38 ea1d 9b37
00000210: 15ec f337 0550 3337 0c69 9638 6183 f839
00000220: 2edf 0a3a c711 bd39 94ae f539 106b 273a
00000230: b353 8c3a a00c 6339 ee2c 5839 a115 1c39
00000240: f841 543a a319 163a d013 2039 98c5 5c39
00000250: af84 9338 c726 113a f314 bf37 ab16 bf36
00000260: 3527 8d37 8816 8937 7e8b 9237 5a94 af37
00000270: 8613 2437 48be ef36 80f5 b336 570f ac37
00000280: 1a2c 6837 7776 ce36 b5be f736 0290 5036
00000290: 81f2 9137 01f3 a737 2033 ba37 2383 ab37
000002a0: 6c62 3137 fa8b e137 1ca1 6138 70ed d136
000002b0: a0bf 5937 9c68 ab36 eaab aa37 6295 8237
000002c0: 282e 0437 879c 0037 f312 3636 106c f937
000002d0: 4b53 1139 6ad8 6d38 e5e4 2f38 92ab fd38
000002e0: 15f8 4439 ed8c 0439 6d0c a838 d141 b937
000002f0: 6a02 2838 9738 2739 e3dd 0539 e259 e737
00000300: 63ac 9c38 a04f aa37 9d53 2439 b29a 503a
00000310: 767f cf39 fa10 383a d7c2 0e3a 18e9 093a
00000320: d762 6f3a cd73 bb39 1a91 a539 995a 9639
00000330: 56b9 bd3a d89b 853a 8cae f038 98a5 ae39
00000340: f85c e238 ff87 433a 86f2 2739 1caa b839
00000350: bf83 fa38 64b1 9538 371d a539 2329 173a
00000360: c20e 2a39 7104 a338 396b 9838 09ab a439
00000370: 554e 8539 1937 7a38 afe4 cb38 d1ab fb37
00000380: ca8a 9939 9075 b538 a1a3 8938 55e4 0e38
00000390: f8cd a338 ccaf ea38 bcf6 1339 d3b0 6838
000003a0: 3c06 9737 0fee 8837 642e 4b38 1061 c038
000003b0: 89f7 cd37 e273 e337 9165 1837 0c24 db38
000003c0: efa2 5338 2256 ad37 7ffe 7238 1162 aa37
000003d0: 79ec aa37 58f2 0c38 c741 3f38 fb7d 9d37
000003e0: 5334 8f37 6fd5 a637 d211 1b38 e9c5 af37
000003f0: cac1 a937 531f ea36 9078 8238 d77f b139
0.00027017976 0.00022938121 0.00016916583 8.95371e-05 0.00018908104 0.00041797562 0.00018092604 5.8228496e-05
6.29522e-05 0.00027758325 0.00018722333 5.6745335e-05 8.988287e-05 3.0131707e-05 0.00021388783 0.00030347865
0.0002750915 0.00016421826 0.00018378247 0.00035323805 0.0005910565 0.00010487071 0.00012638007 6.578443e-05
0.0003347111 0.00021998571 7.264329e-05 0.00014150245 4.5153956e-05 0.00030299698 0.00010404185 5.3741667e-05
0.00024253862 2.69869e-05 9.811255e-05 7.888787e-05 0.0002033538 4.106423e-05 3.9591265e-05 0.00020990567
0.00013748821 3.2170723e-05 6.987134e-05 2.6302987e-05 0.000116088624 0.00027543338 0.00019453556 0.00037413774
0.00017316705 0.00034392648 0.00049240224 0.00030852918 0.000103664715 8.892223e-05 0.0004351584 0.00031648471
7.216123e-05 0.000116917356 4.7504534e-05 0.0003545479 3.9540497e-05 2.9387236e-05 5.139558e-05 3.415404e-05
2.6241269e-05 7.975846e-05 5.2905947e-05 2.1286774e-05 1.9063553e-05 9.2417285e-05 6.159622e-05 2.1831494e-05
3.4471577e-05 1.1600712e-05 7.733202e-05 0.00035806344 0.00020170696 0.00028698784 0.0001938957 0.00028071512
0.00050121336 0.00013048897 0.00013621974 5.7994082e-05 0.00020758367 0.00022218909 5.4554985e-05 8.51366e-05
3.2482174e-05 0.0002862058 8.432186e-05 2.8194507e-05 5.53301e-05 4.119516e-05 6.639189e-05 7.9170684e-05
5.2639294e-05 2.6395111e-05 2.6992757e-05 0.00011360557 8.656663e-05 3.0740288e-05 3.5823447e-05 1.19399265e-05
0.00011790127 0.00013976084 0.00017110196 0.00010227368 0.000116070216 0.00017913282 0.00033082563 0.000109882385
6.138914e-05 4.068105e-05 0.00022647089 6.742591e-05 4.0659415e-05 5.935869e-05 1.8963427e-05 0.00021471397
0.0001373055 4.3319244e-05 3.9568557e-05 4.4541775e-05 0.000105497405 0.00010011988 5.9780617e-05 2.6414536e-05
2.0199299e-05 8.2928986e-05 6.006378e-05 1.849137e-05 2.9077792e-05 1.0687862e-05 7.172124e-05 0.0004740013
0.00052975386 0.00036062134 0.00046860112 0.0006386498 0.0010706097 0.0002165311 0.00020616103 0.00014885377
0.00080969883 0.0005725866 0.0001526617 0.00021054444 7.0342205e-05 0.00055370893 2.277873e-05 5.6948825e-06
1.6826767e-05 1.6342165e-05 1.7469512e-05 2.0930707e-05 9.779707e-06 7.1449067e-06 5.3631957e-06 2.0511141e-05
1.3838546e-05 6.1530695e-06 7.383375e-06 3.1078239e-06 1.7398272e-05 2.0021109e-05 2.2196735e-05 2.0445854e-05
1.0572938e-05 2.6887272e-05 5.3794225e-05 6.2563267e-06 1.2978824e-05 5.1083753e-06 2.0345633e-05 1.556677e-05
7.87856e-06 7.665839e-06 2.7131143e-06 2.9733434e-05 0.00013859307 5.6706755e-05 4.1936426e-05 0.000120959376
0.00018784434 0.00012641 8.013179e-05 2.2084367e-05 4.005657e-05 0.00015947442 0.00012766528 2.75792e-05
7.470769e-05 2.0302658e-05 0.00015671407 0.0007957622 0.00039577082 0.00070215727 0.00054459035 0.0005260869
0.0009131855 0.00035753698 0.00031579362 0.0002867773 0.001447479 0.001019354 0.00011476604 0.00033311243
0.000107938366 0.00074589247 0.00016016708 0.00035221956 0.000119454686 7.137915e-05 0.0003149302 0.0005766323
0.00016217961 7.773273e-05 7.2678966e-05 0.0003140795 0.000254261 5.965596e-05 9.72239e-05 3.000154e-05
0.0002928584 8.65265e-05 6.563147e-05 3.406809e-05 7.81081e-05 0.00011190734 0.00014110928 5.547779e-05
1.8003506e-05 1.6323318e-05 4.8442176e-05 9.173353e-05 2.4553172e-05 2.711447e-05 9.083554e-06 0.00010449448
5.0458064e-05 2.0663316e-05 5.7934314e-05 2.0311245e-05 2.0375695e-05 3.36043e-05 4.559921e-05 1.8774523e-05
1.7071294e-05 1.988813e-05 3.6971476e-05 2.0953785e-05 2.023661e-05 6.97739e-06 6.2213396e-05 0.0003385532

exp_avg f4 [16, 32]
00000000: ddf6 6139 9dcf dd3b 6922 5cbb 9cfe babb
00000010: 7f6a 663b dc2d 22ba 72f7 a93b 1c04 83ba
00000020: 4655 5d3b 0309 6e3b 33d7 323a 2933 ab3b
00000030: 4d0c 8b3a ebe8 e83b e6e8 fc3a f771 653b
00000040: 18e8 d63b 1001 c1bb 3861 3abb 5cc6 f83b
00000050: 136e 833b 3709 0e39 1789 a0ba 8030 253b
00000060: 3f5d 6b3b d1ae 8b3a 9d67 8cbb 4144 77bb
00000070: e63f 99bb e473 0bba f2cb c23b 8cbd 9239
00000080: 1428 83ba a077 0038 d803 253b d304 573b
00000090: b471 03bb a146 1dbb 78b7 faba 83ef 7ab9
000000a0: 417e 10ba 3ad4 9bba c8ee f438 db17 ebb9
000000b0: 5678 d7ba 297f 9bba e8e9 b939 7ec7 fab9
000000c0: 63f5 baba bac2 513a 7129 eeba 332c 37bb
000000d0: 33f9 8c39 0a1e 5c39 4801 893a fae8 013b
000000e0: 8ee8 43ba daeb fcba 9553 3e3b 6eea 83ba
000000f0: 521a 8bba 6ece 7eba 541d 19bb 2915 34bb
00000100: 7b5e 3cbb 69ad 07bc 1ec3 f73b 55bc 3a3c
00000110: c662 2bbb 417d 98b9 8418 17bc 0c4b 4dbb
00000120: 684f a7bb 7d33 8abb f869 0b39 d724 1cbc
00000130: b2a1 77bb d544 e7bb c138 b8b9 074f a4bb
00000140: 1806 01bc 9722 ec3b aa43 33b9 892d 0dbc
00000150: cd09 d0bb 25c2 253a 28ba 52ba 8470 f839
00000160: ba6f 59bb a9de c03a fc3a 013c 3e96 b53b
00000170: ab76 de3a 943e 39bb fb88 94bb cf59 c2bb
00000180: 82dc cb39 0084 193b 533d 15bb f5a6 81bb
00000190: 3a28 ae3a 5518 c639 aec7 4d3b b06b 003b
000001a0: 23c6 023b 64b7 293b ee8e 00ba e522 4f3b
000001b0: d6c1 4c3a f33b 0e3b c6d0 c6b9 34d3 d439
000001c0: a4fb 6c3b bc9c 29bb 1cab f9b9 6fb4 623b
000001d0: 4512 d13a a41f cfba aecc 08ba 6185 60b8
000001e0: 053f b73a b82e c5b9 a0d3 daba 2f93 89ba
000001f0: 7ec7 87b7 3e08 a23a 7175 e23a b06c 203b
00000200: abd2 c53b 6d45 b83c f106 64bc 2ef7 babc
00000210: 002a 423b b834 1bbc ebcb b73c 0bd3 273b
00000220: 47a1 f63b 6561 443b 6cee c639 cd0f 9e3c
00000230: 0ffd e83b c198 833c 9ccd a33a 3781 a53c
00000240: c733 8b3c 14d3 7ebc 3fff c5bb 96e0 ac3c
00000250: 2fa2 a03c f979 1a3c 2731 043c 4ce7 1c3c
00000260: 8164 ce3b e000 ccbb 9b99 9abc 32ec 96bc
00000270: 944e 55bc 3c04 a83b 451d 4c3c 7ad2 e73b
00000280: e4c1 a83a d432 573a 186b c7b9 1327 19bb
00000290: f30e 4c3a 14d7 9b39 cf92 0a3b 4dab c439
000002a0: eece 2d39 e314 923a 1149 55ba 83e5 bd3a
000002b0: 7ab6 9a3a 20cc e33a 8358 3fba 4814 1f3a
000002c0: 31b0 1c3b f5ca 09ba 6ed6 12ba 2c1e 3a3b
000002d0: a335 923a bfc2 353a bf48 4f3a 59ff 193a
000002e0: b4d7 613a 15eb 333a 3857 2dba 47b3 1f39
000002f0: 72b5 52b9 4ca8 ad3a 6331 c73a 5873 143a
00000300: ee3f 053a 8c6f 233a e2dc 1cba 716c 51ba
00000310: 685a 133b d62c 813a f950 783a 168f 06bb
00000320: 53d2 e138 e186 d03a cb9f 74ba c7bd fb39
00000330: d26d 763a 2903 373b 1a89 893a b79b 4e39
00000340: 68f0 bd3a b098 19ba df31 aeb7 fc27 5a3b
00000350: 0b6f f639 aae8 aeba ab27 d4b9 2331 3e3a
00000360: 8798 1b3a 3b2a 253b dbbf d1ba 13d1 683a
00000370: a067 d6ba ff22 69ba 50fe 3d3b fa33 64ba
00000380: 05d9 a73a c1d8 503a 9616 b1b9 00c6 69b9
00000390: 4f95 2fb8 19be 4c3a a500 8839 39d3 c738
000003a0: bf2e ed38 1eff 723a 19f7 91b9 4d29 193a
000003b0: 8410 5e3a 81b8 dc3a aad8 2fba 6598 8dba
000003c0: 44b3 db39 6003 c239 17be de39 4224 b53a
000003d0: 7503 4839 ed58 79ba 13e0 d839 a295 9c39
000003e0: 97a6 b2b8 e819 8e3a cee1 16ba 2a6a 7239
000003f0: 9192 4b3a 02a8 62b9 daa3 a9b9 7545 1eba
0.00021549636 0.006769134 -0.0033589846 -0.0057066213 0.0035158691 -0.0006186643 0.0051869685 -0.0009995732
0.003377275 0.003632129 0.00068222283 0.0052246046 0.0010608524 0.007107844 0.0019295483 0.0035010555
0.0065584294 -0.0058900192 -0.0028439295 0.0075920057 0.0040109246 0.00013545608 -0.0012247887 0.002520591
0.0035913733 0.0010656958 -0.0042848126 -0.0037729891 -0.0046768067 -0.0005319698 0.0059447223 0.00027988513
-0.0010006451 3.0628988e-05 0.0025179293 0.0032809272 -0.0020056786 -0.0023998397 -0.0019128164 -0.00023931083
-0.00055119774 -0.001188881 0.00011679303 -0.00044840467 -0.0016439061 -0.0011863458 0.00035460223 -0.0004783235
-0.0014263805 0.0008001734 -0.001817031 -0.0027949929 0.0002688855 0.00020992025 0.0010452652 0.0019822703
-0.0007473313 -0.0019296363 0.0029041518 -0.0010064372 -0.0010612702 -0.00097200915 -0.0023363428 -0.0027478433
-0.0028742838 -0.00828109 0.0075611016 0.011397441 -0.0026151403 -0.0002908502 -0.009222154 -0.003132525
-0.0051059015 -0.0042175637 0.0001329555 -0.009530268 -0.0037785587 -0.007057766 -0.000351375 -0.0050143036
-0.007874988 0.007206272 -0.00017095977 -0.008616813 -0.0063488246 0.000632318 -0.00080386037 0.00047386077
-0.0033178166 0.0014714795 0.007887598 0.005541592 0.0016972622 -0.002826606 -0.004532931 -0.005931116
0.00038883468 0.0023424625 -0.0022772148 -0.0039566704 0.0013287135 0.00037783632 0.0031399536 0.0019595437
0.0019954524 0.0025896663 -0.00049041107 0.0031606492 0.0007810866 0.0021703213 -0.0003792105 0.0004059315
0.0036160732 -0.0025880774 -0.00047620467 0.003459241 0.0015950879 -0.0015802276 -0.0005218488 -5.352998e-05
0.0013980573 -0.00037609576 -0.0016695149 -0.0010496135 -1.618615e-05 0.0012362076 0.0017277432 0.0024478845
0.0060370765 0.022494042 -0.013917671 -0.022822943 0.0029627085 -0.009473018 0.022436103 0.002560797
0.00752655 0.0029965278 0.0003794314 0.019294644 0.007110245 0.01606405 0.001249719 0.020203216
0.016992463 -0.015553255 -0.0060423906 0.021103185 0.019608585 0.009428495 0.008068359 0.00957663
0.006298602 -0.0062256902 -0.018872073 -0.018423174 -0.013019223 0.005127458 0.01245815 0.0070746513
0.0012875167 0.0008209173 -0.0003803603 -0.0023369237 0.000778421 0.0002972415 0.0021144634 0.00037511662
0.00016575653 0.0011145141 -0.0008136193 0.0014487955 0.001180365 0.001737956 -0.0007299261 0.0006068391
0.002390873 -0.0005256378 -0.00056014105 0.0028399331 0.0011154901 0.00069336215 0.00079072634 0.00058745366
0.0008615211 0.0006863338 -0.0006612423 0.00015230208 -0.00020094754 0.0013249009 0.0015197214 0.00056629395
0.00050830736 0.00062345783 -0.0005983842 -0.00079888763 0.0022484306 0.0009855281 0.0009472515 -0.0020532063
0.00010768012 0.0015909338 -0.00093316723 0.00048015846 0.000940052 0.0027925468 0.001049313 0.00019703699
0.0014491202 -0.0005859239 -2.076564e-05 0.0033287993 0.0004700351 -0.0013344486 -0.00040465346 0.0007255247
0.0005935509 0.0025202173 -0.0016002612 0.0008881252 -0.0016357787 -0.00088934595 0.0028990693 -0.0008705255
0.0012805766 0.0007966869 -0.000337769 -0.00022294372 -4.1862306e-05 0.0007810309 0.00025940422 9.528403e-05
0.00011309748 0.0009269583 -0.00027840657 0.0005842641 0.0008471089 0.0016839654 -0.00067080057 -0.0010802863
0.00041904498 0.00037005078 0.00042484768 0.001382001 0.00019074774 -0.0009511847 0.0004136568 0.00029866124
-8.518731e-05 0.0010841461 -0.00057556934 0.00023118468 0.00077656755 -0.00021615627 -0.0003235627 -0.00060375716
