_stacked-ensembles/resources/ip3.pth (torch_old, 34385 bytes, 16 tensors)

dataset_stats f4 [14]
38.99915 3.88075 190046.05 10.3486 10.1792 2.58825 6.61495 1.4114
3.67735 0.6784 1754.4596 142.135 40.6931 36.71765
00000000: 21ff 1b42 355e 7840 8397 3948 de93 2541
00000010: 01de 2241 e3a5 2540 acad d340 c1a8 b43f
00000020: b459 6b40 9fab 2d3f b54e db44 8f22 0e43
00000030: bcc5 2242 e0de 1242

dataset_stats f4 [14]
13.645312 1.4551754 105065.39 3.7941663 2.5825996 1.4891349 4.2408 1.6137472
0.8355728 0.46710208 9360.138 506.52646 12.289315 7.845037
00000000: 3353 5a41 3043 ba3f b234 cd47 9fd3 7240
00000010: 5049 2540 f99b be3f a2b4 8740 458f ce3f
00000020: 19e8 553f 0128 ef3e 8d40 1246 6343 fd43
00000030: 09a1 4441 8b0a fb40

embeddings.6.weight f4 [42, 21]
-0.37149763 0.5025645 0.08247592 -0.24724391 1.378656 0.13674438 1.1503857 -0.1696725
1.13803 0.5738387 -1.1689306 -0.35598013 0.5772236 0.28761557 -1.6110327 0.63656235
-0.26530668 0.54934865 1.4462643 -1.4089926 -0.95197636 -0.56501406 0.3716719 -1.049941
-0.3549663 1.8781161 -0.17597635 -0.6118916 0.07220669 1.0564985 0.3524141 -0.50885713
-0.20568879 -1.1291876 0.075053506 0.16563734 0.3723957 -0.31052464 0.84863985 0.28464258
-0.21629561 0.42407084 -0.15801685 -0.4399212 -0.6120345 -1.3073117 -0.036571972 0.02257651
-0.58978206 0.700258 -0.7136857 0.9144326 0.4340134 0.3478252 0.6369253 1.1219262
-0.027728908 -0.17040448 -1.0190709 0.93767285 -0.9828755 -0.52746636 -0.9472946 -0.28122774
-0.97723246 1.2680877 -0.2905947 -0.57731426 -0.10238228 0.82921183 0.10600533 0.034903314
0.035686154 -0.098878 -0.5075171 -0.88264835 -0.0865696 -0.6764067 -0.7366108 0.29636553
0.6449552 -0.86920047 0.60690105 0.39911968 0.28471312 0.10978589 0.56468433 0.3473397
-0.71419495 0.048072632 -0.16756983 1.3056262 -0.12542161 0.47562307 1.2842445 0.351557
-0.35657167 -0.89337 1.5077648 -0.27224386 -0.91915613 1.0149316 0.5468825 -0.41355905
0.22906041 0.34743997 -0.10982365 -0.4339419 -0.79682 -0.21707256 0.67118204 0.14388199
0.45502174 -0.09198646 -0.53699607 0.16085115 0.39760402 -0.23126975 -0.31350085 -1.0099798
-0.3933024 0.44778892 -0.098873466 -0.46481276 -1.5510943 1.0919641 -0.54093754 0.77958757
0.3471374 -0.92177945 0.01598787 -0.495373 -0.95795596 1.4895846 -0.078112856 0.40653312
1.0977082 0.16680631 -0.1779463 -0.4301977 0.20050645 -0.73417765 -0.10463287 0.36207
0.30410433 0.016501997 -0.07484129 0.9776869 -0.8304144 -1.5652415 0.65842986 0.75370675
0.42539394 -0.41495493 0.3954883 -0.58114046 -0.6486942 -1.2392068 -1.7080135 0.015259318
2.9525564 0.21329924 -1.0471203 -0.11307833 0.56327295 0.5699708 0.26643637 -0.66694427
0.44634017 -0.72164404 0.2428684 -0.26829746 -0.3384836 1.1982106 -0.20195663 -0.23506255
0.89698195 0.019264024 -1.1577113 -0.12113548 0.62884736 0.0939158 -0.2703912 0.23799388
0.32500327 0.35421062 -0.72363997 0.27500814 0.24644718 -0.07081367 -1.8332292 -0.29136178
0.8007173 0.2736025 0.63222957 -0.63897294 -0.52665734 -0.28621 -0.3647804 -0.5260695
-0.16322666 0.09238872 -0.4267912 0.8290377 1.0541139 0.4461791 0.029833999 0.21872027
0.42927784 0.24967156 0.09613489 -1.6136869 0.36076242 -0.24527167 0.69050145 0.5147842
-0.59830517 0.065924615 -0.26821005 -0.88224405 1.0832604 0.9501353 0.20789774 -0.3991605
0.74181765 0.51532984 1.0852753 -0.33392712 -0.784022 0.22501104 -1.0051477 -1.209145
0.8419139 -0.7257841 -0.053105254 -0.45236555 -0.091058925 1.1354057 1.4508405 -0.2942374
0.82189935 -0.50154847 -0.5600112 0.31700504 -0.90705764 -0.19475128 -0.89230007 -0.3468225
-0.07314233 1.4878722 1.274665 -1.6926371 -0.52899295 0.36217543 -0.4175488 0.34472805
00000000: f034 bebe 11a8 003f 23e9 a83d 822d 7dbe
00000010: cd77 b03f b806 0c3e d73f 933f a1be 2dbe
00000020: f8aa 913f 18e7 123f 859f 95bf 0743 b6be
00000030: edc4 133f 5942 933e 5236 cebf c0f5 223f
00000040: 47d6 87be 1da2 0c3f 301f b93f df59 b4bf
00000050: b9b4 73bf c3a4 10bf c74b be3e 7764 86bf
00000060: 25be b5be 1c66 f03f 2533 34be eea4 1cbf
00000070: 1ae1 933d 583b 873f 9f6f b43e 7644 02bf
00000080: 15a0 52be 3889 90bf a7b5 993d d69c 293e
00000090: a6aa be3e 16fd 9ebe 7640 593f acbc 913e
000000a0: 997c 5dbe d01f d93e 2bcf 21be 5a3d e1be
000000b0: 4bae 1cbf fd55 a7bf 7ecc 15bd 60f2 b83c
000000c0: f5fb 16bf 1c44 333f 1bb4 36bf 4118 6a3f
000000d0: 0137 de3e 2516 b23e 890d 233f 479b 8f3f
000000e0: bc27 e3bc 837e 2ebe ea70 82bf 540b 703f
000000f0: bb9d 7bbf 0908 07bf e681 72bf 15fd 8fbe
00000100: e82b 7abf b350 a23f d4c8 94be deca 13bf
00000110: cdad d1bd 3a47 543f 5319 d93d c7f6 0e3d
00000120: a52b 123d 8d80 cabd a4ec 01bf 3ef5 61bf
00000130: 674b b1bd fd28 2dbf 8692 3cbf 39bd 973e
00000140: c91b 253f ec83 5ebf de5d 1b3f 6a59 cc3e
00000150: ebc5 913e 6dd7 e03d 278f 103f 82d6 b13e
00000160: 7bd5 36bf cfe7 443d 6d97 2bbe c21e a73f
00000170: 866e 00be de84 f33e 2062 a43f 47ff b33e
00000180: 9090 b6be e5b3 64bf 70fe c03f 8c63 8bbe
00000190: d14d 6bbf 47e9 813f 7e00 0c3f 03be d3be
000001a0: d08e 6a3e a7e3 b13e 39eb e0bd a22d debe
000001b0: 65fc 4bbf 4548 5ebe 96d2 2b3f cd55 133e
000001c0: 9cf8 e83e 6663 bcbd 9378 09bf 2ab6 243e
000001d0: c192 cb3e fad1 6cbe 2f83 a0be 0547 81bf
000001e0: ef5e c9be 9744 e53e 2c7e cabd f0fb edbe
000001f0: 428a c6bf 7bc5 8b3f e27a 0abf 0d93 473f
00000200: febb b13e bdf9 6bbf fef8 823c 88a1 fdbe
00000210: 9a3c 75bf b5aa be3f a2f9 9fbd 1c25 d03e
00000220: b481 8c3f 46cf 2a3e 8e37 36be df42 dcbe
00000230: 9051 4d3e 11f3 3bbf c249 d6bd 3d61 b93e
00000240: 90b3 9b3e 322f 873c 6446 99bd b049 7a3f
00000250: 0a96 54bf d559 c8bf dc8e 283f edf2 403f
00000260: 3ccd d93e f974 d4be 717d ca3e 9fc5 14bf
00000270: d310 26bf 549e 9ebf 30a0 dabf 3802 7a3c
00000280: aff6 3c40 1e6b 5a3e 0a08 86bf 9d95 e7bd
00000290: a832 103f 9be9 113f 596a 883e dcbc 2abf
000002a0: b386 e43e aabd 38bf 7eb2 783e 495e 89be
000002b0: b94d adbe f75e 993f b8cd 4ebe 3db4 70be
000002c0: 9ca0 653f 96cf 9d3c e22f 94bf e115 f8bd
000002d0: 24fc 203f ed56 c03d b770 8abe abb4 733e
000002e0: d466 a63e 185b b53e 7840 39bf decd 8c3e
000002f0: a65c 7c3e c206 91bd 41a7 eabf 5f2d 95be
00000300: cffb 4c3f a015 8c3e ccd9 213f bb93 23bf
00000310: 04d3 06bf 1e8a 92be 7fc4 babe 7eac 06bf
00000320: e424 27be 4c36 bd3d 6084 dabe d13b 543f
00000330: 34ed 863f 9671 e43e 6e66 f43c 35f8 5f3e
00000340: 4eca db3e e7a9 7f3e 5fe2 c43d 4b8d cebf
00000350: dab5 b83e 7f28 7bbe b4c4 303f e6c8 033f
00000360: 872a 19bf 7c03 873d d452 89be bfda 61bf
00000370: 47a8 8a3f 113c 733f 25e3 543e c45e ccbe
00000380: c3e7 3d3f a8ec 033f 4dea 8a3f 7ff8 aabe
00000390: aab5 48bf 4b69 663e aea8 80bf 43c5 9abf
000003a0: ab87 573f fdcc 39bf e584 59bd 759c e7be
000003b0: 1a7d babd f954 913f 24b5 b93f 49a6 96be
000003c0: ff67 523f 7b65 00bf e55c 0fbf 7c4e a23e
000003d0: ee34 68bf e16c 47be c76d 64bf b892 b1be
000003e0: a5cb 95bd 9972 be3f 3928 a33f 55a8 d8bf
000003f0: 156c 07bf 0f6f b93e f5c8 d5be 3280 b03e

f.0.weight f4 [32, 27]
-0.050625246 -0.0132157765 -0.08766448 0.7728334 -0.017596118 -0.026708025 -0.21905345 -0.0009874497
0.054204207 -0.02178378 -0.17967504 -0.09959782 -0.06948595 -0.23925352 -0.1380527 0.1720683
-0.26548496 0.097199254 -0.2524896 0.025153192 -0.022913335 -0.05522789 0.2726207 -0.23435923
-0.22636679 -0.17849429 0.047392566 0.6111656 0.0011566291 0.029881883 0.067322776 0.014788325
-0.11653789 0.19374295 -0.12566017 -0.063836195 0.22886997 0.33670747 -0.053509425 -0.17631589
0.027462263 0.094183184 -0.18503998 -0.04270093 -0.16054182 0.23950104 -0.06227907 -0.12397784
0.09708146 -0.15512763 -0.06070097 -0.21822287 -0.2344259 -0.036232706 0.07918326 0.061396666
-0.13330549 0.32875648 -0.07795298 0.08267888 0.29394284 -0.036328655 0.054594137 0.5869809
0.04026007 -0.031004926 -0.061686747 -0.0943851 -0.38261634 -0.2250166 0.3379562 0.069345355
0.10895939 -0.0033806567 -0.016926395 -0.14280792 -0.15314049 -0.030993076 -0.08302204 0.0426658
0.031918373 -0.06318762 -0.010361938 0.08231187 0.45740315 -0.21920335 0.01798041 0.21552481
-0.3008571 -0.1088541 -0.15788081 0.16892423 -0.21197526 -0.21202707 -0.01989935 -0.059789963
0.02196913 -0.081319936 -0.15665998 0.25719032 -0.35244027 0.016755432 -0.47129077 0.2543768
0.158612 -0.08515748 -0.16494142 0.29651034 0.5486535 0.12845168 -0.07219993 -0.025442783
-0.042680327 -0.022374852 -0.10641016 -0.13837008 0.14023598 0.0057447148 0.3008985 0.46205932
-0.09265088 0.49191764 0.26042813 0.1253348 0.28334466 0.280473 0.57912034 -0.22035234
0.22116295 -0.053675998 0.15778515 0.06341188 0.034283396 -0.21732911 -0.0726966 0.7692084
-0.23093617 -0.11247365 0.12209652 0.04297681 0.13392341 -0.089877546 -0.05977349 0.40868336
0.03438212 -0.14164136 -0.3800809 0.06524879 -0.27933156 0.5249226 0.5739912 -0.06765241
0.14437765 -0.028887512 -0.2837568 0.11572961 -0.085456416 -0.46959674 -0.06563049 -0.14662018
-0.097041644 -0.21637297 0.019299325 0.006607155 0.46168622 0.34538466 0.07966879 -0.060234684
-0.113150686 0.1497585 0.06198075 -0.349169 -0.08487878 -0.040899966 -0.045199834 -0.08950488
-0.27789414 -0.20020668 -0.036650866 -0.14479992 0.43511102 -0.1827369 0.12917532 -0.3993919
0.45391965 -0.21985348 0.02543605 -0.013407819 0.070426516 0.5339639 -0.06577669 0.030738307
-0.07987599 -0.10324104 0.1752821 -0.101422824 0.031392016 0.3801617 0.42417005 -0.2877631
0.17418672 -0.009970307 -0.10490357 -0.09490484 0.10833209 -0.32333735 0.13427068 -0.23782001
-0.33024785 -0.037597537 -0.106686965 0.14831772 0.09281312 0.093429536 -0.07431051 -0.12734866
-0.4628369 0.095801786 -0.021817325 -0.19074278 -0.23671533 0.0042301235 -0.16489035 -0.106998645
0.20964 0.409116 -0.12749137 0.28880966 -0.031736143 0.15299016 0.3322035 -0.018632274
0.05339726 -0.10901726 -0.07056256 -0.5660898 0.08243178 0.07978491 -0.2914918 0.31068313
0.09948488 0.3017974 0.053857032 -0.021427302 0.11000962 -0.27953815 0.14986521 -0.013335452
0.14778893 -0.47351822 0.07331101 0.09660785 0.34091526 0.11360933 -0.09145158 -0.26135993
00000000: 6b5c 4fbd fc86 58bc 6f89 b3bd 69d8 453f
00000010: bc25 90bc caca dabc 8c4f 60be 506d 81ba
00000020: 3b05 5e3d e673 b2bc bcfc 37be f1f9 cbbd
00000030: a64e 8ebd e0fe 74be b05d 0dbe ac32 303e
00000040: a5ed 87be 6710 c73d 5146 81be 110e ce3c
00000050: bfb4 bbbc a436 62bd f194 8b3e defb 6fbe
00000060: b2cc 67be 35c7 36be b51e 423d 5975 1c3f
00000070: 089a 973a daca f43c 86e0 893d bb4a 723c
00000080: 6bab eebd 8d64 463e 0fad 00be 8dbc 82bd
00000090: e45c 6a3e ec64 ac3e b32c 5bbd 278c 34be
000000a0: 8af8 e03c 1de3 c03d 1f7b 3dbe 2ce7 2ebd
000000b0: 1365 24be c33f 753e 5718 7fbd 18e8 fdbd
000000c0: a5d2 c63d c7d9 1ebe 95a1 78bd d175 5fbe
000000d0: 580d 70be bf68 14bd d52a a23d 127b 7b3d
000000e0: 3c81 08be c552 a83e d0a5 9fbd 8b53 a93d
000000f0: ad7f 963e 5bcd 14bd 1a9e 5f3d 6144 163f
00000100: bee7 243d 0bfe fdbc 3eab 7cbd fa4c c1bd
00000110: 4ae6 c3be c06a 66be 9808 ad3e f004 8e3d
00000120: 1a26 df3d 028e 5dbb 39a9 8abc 3d3c 12be
00000130: dcd0 1cbe 31e5 fdbc 7607 aabd 55c2 2e3d
00000140: d7bc 023d 8368 81bd 1ec5 29bc 2093 a83d
00000150: bf30 ea3e d876 60be a74b 933c 89b2 5c3e
00000160: f109 9abe e6ee debd 82ab 21be 79fa 2c3e
00000170: 0b10 59be a01d 59be f603 a3bc 52e6 74bd
00000180: 9bf8 b33c 118b a6bd 796b 20be 73ae 833e
00000190: 0d73 b4be b042 893c 064d f1be ad3d 823e
000001a0: 2f6b 223e 0b67 aebd 67e6 28be 34d0 973e
000001b0: 8e74 0c3f d688 033e 8fdd 93bd 626d d0bc
000001c0: 91d1 2ebd 774b b7bc 92ed d9bd e3b0 0dbe
000001d0: 059a 0f3e 293e bc3b 5e0f 9a3e 0a93 ec3e
000001e0: bfbf bdbd a1dc fb3e d656 853e c457 003e
000001f0: 8d12 913e 289a 8f3e 3b41 143f 0ba4 61be
00000200: 8a78 623e 5ddb 5bbd 6e92 213e 16de 813d
00000210: bf6c 0c3d 868b 5ebe f4e1 94bd d7ea 443f
00000220: 887a 6cbe 9658 e6bd be0d fa3d 7408 303d
00000230: 3823 093e b811 b8bd 0cd5 74bd f23e d13e
00000240: 44d4 0c3d 6f0a 11be f799 c2be 28a1 853d
00000250: 8c04 8fbe 5461 063f 16f1 123f 598d 8abd
00000260: bcd7 133e 81a5 ecbc 9248 91be a503 ed3d
00000270: c603 afbd fc6e f0be 4769 86bd 9a23 16be
00000280: c5bd c6bd e090 5dbe 9e19 9e3c d580 d83b
00000290: 2362 ec3e 42d6 b03e 6429 a33d a5b8 76bd
000002a0: 8cbb e7bd 4b5a 193e 87df 7d3d 47c6 b2be
000002b0: edd4 adbd b986 27bd 7623 39bd 564e b7bd
000002c0: 2448 8ebe fb02 4dbe 381f 16bd 6e46 14be
000002d0: dfc6 de3e 621f 3bbe 8946 043e 187d ccbe
000002e0: 2868 e83e 4521 61be 435f d03c 78ac 5bbc
000002f0: c73b 903d dcb1 083f eeb5 86bd e7ce fb3c
00000300: 0696 a3bd 0a70 d3bd 277d 333e c5b6 cfbd
00000310: ea94 003d 8ea4 c23e d12c d93e af55 93be
00000320: 015e 323e 805a 23bc afd7 d6bd 785d c2bd
00000330: 37dd dd3d 798c a5be 417e 093e 1787 73be
00000340: 3f16 a9be e0ff 19bd b27e dabd 9ae0 173e
00000350: ce14 be3d fc57 bf3d 1c30 98bd b067 02be
00000360: f5f8 ecbe ba33 c43d 3fba b2bc 1352 43be
00000370: 8165 72be d99c 8a3b 04d9 28be 1b22 dbbd
00000380: deab 563e a777 d13e 198d 02be dcde 933e
00000390: c2fd 01bd 74a9 1c3e 9416 aa3e b6a2 98bc
000003a0: 16b7 5a3d 7144 dfbd 1a83 90bd 43eb 10bf
000003b0: fed1 a83d 4566 a33d 6a3e 95be dc11 9f3e
000003c0: bbbe cb3d 3085 9a3e 3199 5c3d 4f88 afbc
000003d0: b94c e13d a01f 8fbe 4476 193e f17c 5abc
000003e0: fb55 173e fb70 f2be 1524 963d 56da c53d
000003f0: 728c ae3e 02ac e83d f74a bbbd f8d0 85be

f.2.running_mean f4 [32]
-0.46644825 0.52233654 0.59471273 -0.59218293 0.5891427 0.6631259 -0.71727324 0.526126
0.7502751 0.39021868 -0.5659921 0.7207528 0.5455736 -0.38900858 -0.7590469 0.07914354
0.7211409 -0.23723981 -0.61745113 0.44018328 -0.4603814 0.3047516 -0.33566877 -0.5272333
0.73625374 0.38035497 -0.095604 -0.0238566 0.006410467 0.264609 0.694953 0.865177
00000000: 4ed2 eebe d9b7 053f 183f 183f 4d99 17bf
00000010: 0ed2 163f 9ec2 293f 389f 37bf 32b0 063f
00000020: 0712 403f beca c73e dce4 10bf 4183 383f
00000030: b6aa 0b3f 222c c7be e650 42bf 0216 a23d
00000040: b19c 383f feee 72be 4711 1ebf b45f e13e
00000050: 1cb7 ebbe 6708 9c3e c7dc abbe c3f8 06bf
00000060: 207b 3c3f e3bd c23e 08cc c3bd eb6e c3bc
00000070: e50e d23b d57a 873e 71e8 313f 3d7c 5d3f

f.2.running_var f4 [32]
0.1075771 0.14484365 0.12837543 0.12149235 0.1305392 0.15569916 0.13036248 0.18867177
0.14381862 0.11051278 0.12858044 0.08511422 0.14901982 0.100863114 0.09969336 0.21906452
0.11918608 0.14594956 0.19454512 0.17187957 0.19249469 0.0765332 0.131792 0.110309646
0.08636851 0.09740155 0.11814887 0.14905977 0.16332996 0.20794477 0.124174505 0.09204404
00000000: 6251 dc3d e551 143e d974 033e fbd0 f83d
00000010: 11ac 053e 9a6f 1f3e be7d 053e 2c33 413e
00000020: 3045 133e 8654 e23d 97aa 033e 5d50 ae3d
00000030: a798 183e 5291 ce3d 082c cc3d 7352 603e
00000040: d517 f43d cd73 153e d636 473e 3301 303e
00000050: 541d 453e 70bd 9c3d 7bf4 063e 06ea e13d
00000060: f9e1 b03d 777a c73d 09f8 f13d 20a3 183e
00000070: f83f 273e 79ef 543e 344f fe3d 9681 bc3d

f.3.weight f4 [16, 32]
0.1462056 0.13263421 0.16681856 -0.05295493 0.204684 0.103280835 0.26943278 0.44894797
0.044499505 -0.14985558 -0.24735692 -0.17400946 -0.044761218 -0.12061001 0.44429687 0.0047343466
0.11721035 -0.18966146 -0.26422918 0.34791353 -0.06659364 0.011406026 -0.01642426 0.16345392
0.039089255 -0.05969857 -0.028525805 -0.19380721 -0.16911997 0.27688664 -0.30543837 -0.09668884
-0.16524193 -0.3096103 -0.0645822 0.03852864 -0.24056676 -0.06623918 -0.059466854 -0.032711532
0.17862912 0.08827384 0.20059897 -0.15598759 -0.23035176 -0.16461341 -0.28769222 -0.017186398
-0.41020453 0.21178727 -0.01325307 -0.24718459 0.15571691 0.40591905 0.17456561 -0.14284371
0.12993708 -0.007591 -0.1791055 -0.17785619 0.17815438 0.36404783 -0.0742697 -0.25230378
-0.07322359 -0.04775392 -0.09838338 -0.21878263 0.03126413 -0.053055163 0.005415941 -0.057620816
0.056149814 -0.09879342 -0.031344585 0.13545586 -0.13824718 -0.24804111 -0.114243634 0.05813679
0.12199685 -0.30113065 0.244634 0.11611937 0.18792197 0.60382944 0.29419115 0.21683711
-0.2260395 0.25344193 0.19147608 -0.38388208 -0.03110486 0.008205267 0.23344024 -0.1546887
-0.12157081 -0.3355924 -0.20310405 0.1960994 0.034368083 -0.12515818 -0.09677013 -0.19905093
0.052198157 0.150269 0.2034557 -0.32219243 0.08231473 0.033196434 -0.2833542 0.2623734
-0.5443955 0.01998284 -0.062039055 0.05161283 -0.07259152 0.3110551 0.11530471 0.12585077
0.19566058 -0.25517762 -0.21587716 0.09031504 -0.07002688 -0.086553976 -0.106400274 0.19479236
-0.48948288 0.055317026 0.484486 -0.23089965 0.07685654 0.10002949 -0.06904404 0.18524486
0.08321412 0.28331262 -0.0021798364 0.37615293 -0.035064045 0.03419346 -0.4718679 -0.11423383
0.3396044 -0.35041654 0.046243984 0.21699099 -0.20294961 -0.0912626 0.384182 -0.124835156
0.41285166 -0.10676347 0.083503336 -0.08152534 0.039683927 -0.18105367 0.1162475 0.44669077
-0.033817623 -0.04719999 -0.23975596 0.0079387175 -0.047781877 -0.10676272 0.03300521 -0.3344628
-0.29552197 -0.06876696 0.5105535 0.28259516 0.10947692 0.24689975 0.0374608 -0.11163521
0.0029227405 -0.23155257 0.24605948 -0.1561751 0.13316637 0.18814024 0.24617915 0.2601673
-0.09129285 0.12641492 -0.41845605 0.08654175 0.048116013 -0.18154511 0.3737866 -0.12587886
-0.096415766 -0.28853762 -0.18234695 -0.1955553 -0.16956349 -0.10741685 -0.25328457 -0.061162185
-0.30983618 0.01943373 -0.4066334 0.12083695 -0.30666727 0.22452997 0.2596203 -0.33342066
-0.016262075 -0.16362603 -0.032745887 -0.11766239 -0.10105648 -0.075403325 0.1349384 -0.0114694
0.09371529 -0.13482538 -0.21288803 -0.16815788 0.049500197 -0.04249362 0.09978452 -0.26223326
0.013373474 -0.19662625 -0.05675307 -0.031060299 0.14834149 -0.1684563 -0.22203521 -0.27321038
0.050707806 0.084159695 0.11559302 -0.15488245 0.13628902 0.3151591 -0.23172861 -0.10535905
-0.085096054 0.30148545 -0.07298925 0.3529395 -0.08122323 0.23950306 -0.03049282 -0.38953173
0.029022822 -0.30875677 0.11421913 -0.18743055 -0.33136776 0.016340652 0.07652322 -0.2879497
00000000: ecb6 153e 43d1 073e 7cd2 2a3e 45e7 58bd
00000010: af98 513e e784 d33d 18f3 893e 82dc e53e
00000020: 1d45 363d be73 19be 224b 7dbe 892f 32be
00000030: 8a57 37bd 6202 f7bd e17a e33e 9422 9b3b
00000040: fb0b f03d 9d36 42be 0c49 87be b921 b23e
00000050: 3f62 88bd 57e0 3a3c 2b8c 86bc 7760 273e
00000060: 0e1c 203d 7d86 74bd f3ae e9bc 6675 46be
00000070: c92d 2dbe 16c4 8d3e 6b62 9cbe cc04 c6bd
00000080: 2e35 29be 3e85 9ebe ac43 84bd 35d0 1d3d
00000090: 2257 76be 68a8 87bd 8493 73bd 87fc 05bd
000000a0: 8dea 363e eac8 b43d d169 4d3e 36bb 1fbe
000000b0: 55e1 6bbe 6b90 28be 654c 93be 7dca 8cbc
000000c0: 5406 d2be c3de 583e 6823 59bc f51d 7dbe
000000d0: 4174 1f3e 9fd4 cf3e 54c1 323e 9f45 12be
000000e0: 3a0e 053e ecbd f8bb 6f67 37be ef1f 36be
000000f0: 1a6e 363e 7a64 ba3e b61a 98bd f62d 81be
00000100: 40f6 95bd 9d99 43bd 3a7d c9bd 8e08 60be
00000110: d10e 003d 5f50 59bd 3578 b13b ce03 6cbd
00000120: 59fd 653d 3454 cabd 2e63 00bd f1b4 0a3e
00000130: ab90 0dbe 7dfe 7dbe 91f8 e9bd d820 6e3d
00000140: 7cd9 f93d cc2d 9abe 5681 7a3e fecf ed3d
00000150: 9e6e 403e 9194 1a3f 39a0 963e 8c0a 5e3e
00000160: e676 67be 24c3 813e 4e12 443e 318c c4be
00000170: 9fcf febc 626f 063c f50a 6f3e b766 1ebe
00000180: 1efa f8bd c4d2 abbe 82fa 4fbe 48ce 483e
00000190: 8cc5 0c3d 7729 00be 6b2f c6bd 02d4 4bbe
000001a0: bccd 553d 1ee0 193e b156 503e 68f6 a4be
000001b0: a094 a83d fcf8 073d cd13 91be ce55 863e
000001c0: 815d 0bbf 0eb3 a33c aa1c 7ebd fa67 533d
000001d0: ddaa 94bd 9d42 9f3e e024 ec3d 06df 003e
000001e0: 3f5b 483e a4a6 82be e70e 5dbe 17f7 b83d
000001f0: 416a 8fbd 3643 b1bd 63e8 d9bd a677 473e
00000200: 809d fabe 1b94 623d 8d0e f83e f570 6cbe
00000210: f666 9d3d 43dc cc3d f666 8dbd d4b0 3d3e
00000220: 2a6c aa3d 5a0e 913e 96db 0ebb 1e97 c03e
00000230: 519f 0fbd 710e 0c3d ab98 f1be 6df3 e9bd
00000240: a1e0 ad3e cc69 b3be 556a 3d3d e332 5e3e
00000250: 06d2 4fbe e3e7 babd 81b3 c43e 93a9 ffbd
00000260: 4b61 d33e cea6 dabd cc03 ab3d c2f6 a6bd
00000270: 9d8b 223d 2266 39be 2b13 ee3d a7b4 e43e
00000280: 5984 0abd c754 41bd 9682 75be 6511 023c
00000290: eeb6 43bd 6aa6 dabd 7930 073d b53e abbe
000002a0: a84e 97be b1d5 8cbd a2b3 023f 50b0 903e
000002b0: 6f35 e03d 4ad3 7c3e 7f70 193d 00a1 e4bd
000002c0: 738b 3f3b 1e1c 6dbe 04f7 7b3e 5eec 1fbe
000002d0: c45c 083e d6a7 403e 6316 7c3e a634 853e
000002e0: bff7 babd ea72 013e df3f d6be cd3c b13d
000002f0: 4c15 453d f6e6 39be f560 bf3e 63e6 00be
00000300: a175 c5bd 34bb 93be 29b9 3abe a63f 48be
00000310: 0da2 2dbe 5efd dbbd 84ae 81be 3385 7abd
00000320: d9a2 9ebe 7c33 9f3c 4132 d0be 5d79 f73d
00000330: 7e03 9dbe 2feb 653e f4ec 843e 1db6 aabe
00000340: 0b38 85bc 958d 27be 8d20 06bd fbf8 f0bd
00000350: b3f6 cebd 0f6d 9abd 4b2d 0a3e 26ea 3bbc
00000360: cded bf3d aa0f 0abe 52ff 59be 9431 2cbe
00000370: b8c0 4a3d ca0d 2ebd d45b cc3d 7043 86be
00000380: 6a1c 5b3c 6458 49be e875 68bd 2b72 febc
00000390: d5e6 173e cf7f 2cbe 335d 63be 3be2 8bbe
000003a0: fdb2 4f3d eb5b ac3d 09bc ec3d 8199 1ebe
000003b0: 598f 0b3e 895c a13e 444a 6dbe 7cc6 d7bd
000003c0: d746 aebd 4d5c 9a3e 637b 95bd 7cb4 b43e
000003d0: 5d58 a6bd 4a40 753e 14cc f9bc b470 c7be
000003e0: 45c1 ed3c 5e15 9ebe b8eb e93d cbed 3fbe
000003f0: 09a9 a9be d5dc 853c 35b8 9c3d 256e 93be

classifier.weight f4 [1, 16]
0.47257707 -0.2209903 -0.22998619 -0.49601394 -0.5381326 -0.13557465 -0.6093705 -0.28219974
0.16855168 -0.30600056 -0.28395104 -0.32981503 -0.30187467 0.2611142 0.22890483 0.5515833
00000000: 9ff5 f13e 484b 62be 8081 6bbe 8af5 fdbe
00000010: 0fc3 09bf 15d4 0abe b5ff 1bbf 7c7c 90be
00000020: d098 2c3e 1bac 9cbe 0862 91be 84dd a8be
00000030: 518f 9abe c3b0 853e 0766 6a3e 9034 0d3f

exp_avg f4 [42, 21]
5.4047807e-05 0.0008211989 0.0007659004 -0.00045279728 -0.00054808863 4.2579948e-05 -4.722334e-05 0.00047376304
0.0002752048 -0.0004355093 -6.358786e-05 8.808332e-05 -0.0003056231 0.00054180936 0.00026865985 0.00029776362
0.00076748355 -0.000532696 0.00025646045 0.00023248856 0.00012134035 -2.9579892e-06 -2.2995127e-06 1.0184361e-06
1.7734294e-06 -9.2536897e-07 3.056471e-06 -4.102666e-06 2.8474678e-06 -4.6437998e-07 -9.017972e-06 -4.6546697e-07
8.11375e-06 -8.80446e-06 4.1816584e-06 2.4258072e-06 -3.048677e-06 2.5978948e-06 4.4638437e-06 -1.20136e-07
4.6573643e-07 7.0987708e-06 0.0044990857 0.0028744205 0.00045703596 0.0036904493 -0.0020711827 -1.4813088e-05
0.0019632932 0.0038389885 -0.0018720438 -0.004060895 -0.002009804 -0.0013663251 -0.00095993053 0.0060685845
-0.0015167828 0.005505937 -0.0028877323 0.00083835894 0.0036456003 0.0018176361 -0.0025858574 8.1881066e-05
7.7855504e-05 -5.099352e-05 -0.00023534732 7.49298e-05 -1.1911981e-05 0.00012809367 0.00013172517 -0.00010647268
-0.00024561936 -1.7470742e-05 5.414153e-05 -5.3068736e-05 0.00026264193 -2.522436e-06 7.3036914e-05 0.0002162545
-3.716333e-05 -4.128526e-05 0.00012508457 4.920681e-05 3.1142205e-05 -3.655229e-06 -5.724164e-06 1.3088218e-05
1.3726175e-05 -4.5170873e-06 1.0834442e-05 1.9347883e-05 1.5112304e-06 -6.5469403e-06 -2.2759694e-05 3.7697628e-05
-5.75808e-06 2.8235721e-05 1.5119953e-05 1.7435152e-05 -3.0846644e-05 6.3050065e-06 -9.938487e-06 1.6269239e-06
3.37135e-06 -2.207696e-06 -5.809229e-05 -3.601877e-05 -0.0004302004 -0.00025010644 -0.00040058422 4.7632733e-05
-0.00014864156 0.00032814886 0.00040051297 -0.00020255224 0.00011903253 2.169718e-05 -1.612626e-05 0.00017352795
8.538926e-05 -1.067464e-05 -5.5433986e-05 5.8256675e-05 3.3908014e-05 -9.3146264e-05 -1.7064778e-05 -1.2346954e-05
5.2821866e-05 -4.559321e-07 -5.310247e-06 -5.416196e-05 -2.117828e-05 -2.9548837e-05 5.0778857e-05 5.047026e-05
-5.4732e-05 3.9823058e-06 -1.0269174e-05 -4.8026814e-05 2.7209559e-05 -4.271423e-06 -6.4447036e-06 -4.0266033e-05
-4.1625994e-05 -1.0661361e-05 -1.6128056e-06 -3.7334514e-05 -3.3656434e-05 2.8220224e-05 -4.398404e-05 1.0036797e-05
-2.589431e-05 -3.8991155e-05 -4.3196575e-05 8.282945e-07 -1.6350607e-05 -7.671502e-06 -2.009599e-05 -6.1472594e-05
-1.7183784e-05 2.21331e-06 -6.747696e-05 7.832625e-05 -3.27025e-05 -2.9400582e-05 4.6513733e-06 4.288754e-05
0.00010514162 -6.7216024e-05 -2.1923153e-05 0.00010912226 4.315586e-05 -1.0683343e-05 3.0195166e-05 6.154697e-05
-5.51453e-05 5.2737185e-05 -7.476895e-05 5.442797e-05 0.000107481006 -6.935611e-05 6.867008e-05 -2.52555e-05
-2.5291092e-05 4.282189e-05 -5.4375138e-05 -9.285893e-06 -3.1569394e-05 -0.00031909978 0.00045309888 0.0007256215
-0.00039169757 -0.00079340005 0.00041315364 -0.0016104371 0.0016578785 0.001736424 -0.0026519136 -9.1299036e-05
0.0008977506 -0.0019087725 0.0016086166 0.0003200345 -2.4321327e-05 0.0017867559 0.0014787015 0.0010387313
3.5915615e-05 0.0019432162 5.7442598e-05 8.81992e-05 3.875121e-05 -0.00010441985 -7.0721135e-06 -5.0634764e-05
4.7645197e-05 8.311976e-05 9.729817e-05 -0.00014163839 -4.972326e-06 0.00013040433 -6.490514e-05 0.00014372861
7.34574e-06 9.7490745e-05 5.6333476e-05 4.823608e-06 0.00010486501 3.727112e-05 -1.2912016e-05 0.00037571814
0.00012897654 0.00022625597 0.00016846055 -6.2953e-05 -1.2439369e-05 -6.1119936e-05 0.00029187906 -0.00025765027
-0.0004392472 9.164e-05 -0.00021846741 8.7458044e-05 0.00016845154 -0.00018445561 3.0513018e-05 0.0002129901
-9.123626e-05 0.00018300426 -0.000108440494 0.00012961481 -1.0991019e-05 -7.996474e-05 -7.686141e-05 8.4193576e-05
00000000: 64b1 6238 ba45 573a b5c6 483a 6c65 edb9
00000010: 9bad 0fba df97 3238 ad11 46b8 6663 f839
00000020: 5d49 9039 1255 e4b9 795a 85b8 5fb9 b838
00000030: 0a3c a0b9 3608 0e3a eada 8c39 281d 9c39
00000040: f330 493a a0a4 0bba 8a75 8639 2cc8 7339
00000050: 1b78 fe38 de81 46b6 5451 1ab6 33b1 8835
00000060: 9206 ee35 df66 78b5 c61d 4d36 a2a9 89b6
00000070: 2017 3f36 e64f f9b4 e54b 17b7 4be5 f9b4
00000080: 4a20 0837 deb6 13b7 2c50 8c36 0dcb 2236
00000090: df97 4cb6 7e57 2e36 20c8 9536 bbfe 00b4
000000a0: 540a fa34 fa31 ee36 116d 933b c660 3c3b
000000b0: 549e ef39 77db 713b aebc 07bb ba85 78b7
000000c0: 98aa 003b 8a97 7b3b 5e5f f5ba 4211 85bb
000000d0: eab6 03bb 4316 b3ba d9a3 7bba fada c63b
000000e0: c9ce c6ba 266b b43b 1c40 3dbb 51c5 5b3a
000000f0: 06eb 6e3b bf3d ee3a 7d77 29bb 90b7 ab38
00000100: 5b46 a338 e0e1 55b8 91c7 76b9 a123 9d38
00000110: 92d9 47b7 e250 0639 b51f 0a39 164a dfb8
00000120: 79c6 80b9 228e 92b7 0616 6338 1f96 5eb8
00000130: 34b3 8939 1f47 29b6 652b 9938 60c2 6239
00000140: d2df 1bb8 b629 2db8 2229 0339 6963 4e38
00000150: b09e 0238 5b4c 75b6 3212 c0b6 7895 5b37
00000160: 7949 6637 7c91 97b6 93c5 3537 434d a237
00000170: 7bd5 ca35 caad dbb6 12ec beb7 851d 1e38
00000180: 8835 c1b6 c0db ec37 b4ab 7d37 b441 9237
00000190: 5561 01b8 988f d336 7abd 26b7 ae5c da35
000001a0: 5a3f 6236 ee27 14b6 1fa8 73b8 dc12 17b8
000001b0: 858c e1b9 b820 83b9 8105 d2b9 42c9 4738
000001c0: aadc 1bb9 650b ac39 f1fb d139 3464 54b9
000001d0: 1aa1 f938 5702 b637 e146 87b7 0ef5 3539
000001e0: 0313 b338 3b17 33b7 ca81 68b8 a158 7438
000001f0: 7438 0e38 8557 c3b8 5526 8fb7 c325 4fb7
00000200: 0c8d 5d38 d5c6 f4b4 ad2e b2b6 f62b 63b8
00000210: 03a8 b1b7 a5df f7b7 62fb 5438 07b0 5338
00000220: 0a90 65b8 bf9f 8536 c449 2cb7 6670 49b8
00000230: 1540 e437 3f53 8fb6 953f d8b6 53e3 28b8
00000240: 9297 2eb8 32de 32b7 9477 d8b5 a197 1cb8
00000250: 522a 0db8 78ba ec37 817b 38b8 b763 2837
00000260: 9b37 d9b7 6f8a 23b8 f82d 35b8 f757 5e35
00000270: a928 89b7 dab4 00b7 cf93 a8b7 d9ea 80b8
00000280: e525 90b7 6088 1436 6b82 8db8 1643 a438
00000290: 0b2a 09b8 45a1 f6b7 fe12 9c36 25e2 3338
000002a0: 7a7f dc38 54f6 8cb8 9de7 b7b7 91d8 e438
000002b0: 4002 3538 9c3c 33b7 a04b fd37 c712 8138
000002c0: d14b 67b8 1f32 5d38 46cd 9cb8 9649 6438
000002d0: 6d67 e138 4773 91b8 f802 9038 c6db d3b7
000002e0: 3528 d4b7 a79b 3338 dc10 64b8 9bca 1bb7
000002f0: 6169 04b8 d94c a7b9 e78d ed39 a237 3e3a
00000300: c25c cdb9 2dfc 4fba 8b9c d839 4d15 d3ba
00000310: 2c4d d93a b998 e33a bacb 2dbb cc77 bfb8
00000320: 0657 6b3a c72f faba 37d8 d23a 4eca a739
00000330: a705 ccb7 9431 ea3a fdd0 c13a 0a26 883a
00000340: 19a4 1638 84b3 fe3a 85ee 7038 96f7 b838
00000350: cb88 2238 fbfb dab8 fe4c edb6 aa60 54b8
00000360: a4d6 4738 9550 ae38 8f0c cc38 c484 14b9
00000370: f5d7 a6b6 25bd 0839 af1d 88b8 dbb5 1639
00000380: 6d7b f636 f273 cc38 9c47 6c38 7ada a136
00000390: f9ea db38 8f53 1c38 b0a0 58b7 09fc c439
000003a0: e03d 0739 203f 6d39 c9a4 3039 a205 84b8
000003b0: afb2 50b7 842d 80b8 5807 9939 3c15 87b9
000003c0: c34a e6b9 da2e c038 6614 65b9 ae69 b738
000003d0: 5ea2 3039 6d6a 41b9 35f6 ff37 1856 5f39
000003e0: 1856 bfb8 d5e4 3f39 8c6a e3b8 36e9 0739
000003f0: 1166 38b7 beb2 a7b8 a830 a1b8 1591 b038

exp_avg_sq f4 [42, 21]
1.2064914e-05 1.6072543e-05 6.503527e-06 3.375356e-06 2.2252107e-05 2.0808063e-06 5.5769956e-06 1.483665e-05
5.1092534e-06 2.030576e-05 8.6207e-06 1.2078349e-05 1.2646684e-05 4.300323e-05 3.275923e-06 3.2842712e-05
1.1594753e-05 5.9227405e-06 1.5127205e-05 5.4496772e-06 5.0469002e-06 7.633156e-08 4.8555336e-07 1.0013266e-06
1.3757459e-07 8.870157e-07 1.3266246e-07 1.7512033e-07 1.3472319e-06 4.2978107e-07 9.553728e-07 1.2885249e-07
1.340658e-07 3.926317e-07 3.5601343e-07 6.852638e-08 3.139844e-07 1.0907547e-06 8.740395e-08 1.6319531e-07
2.7042722e-07 3.0669358e-07 3.929655e-06 2.2726417e-06 2.3806738e-06 2.6298437e-06 3.288407e-06 4.0208388e-07
1.0262112e-06 8.892239e-06 2.2175832e-06 8.306307e-06 1.3411415e-06 6.2651416e-06 3.8073106e-06 1.1944919e-05
7.9293704e-07 5.729751e-06 2.679596e-06 2.1500596e-06 3.4826694e-06 1.9616812e-06 2.4899493e-06 2.5429387e-07
5.165139e-07 3.6413442e-07 1.0818192e-06 5.4020205e-07 1.7973258e-07 4.444982e-07 2.295847e-06 5.2400674e-07
1.9428794e-06 4.6720987e-07 1.9068702e-06 1.9071861e-06 3.0441593e-06 8.5982253e-07 6.1639594e-07 5.839251e-07
7.3467066e-07 2.9589154e-07 1.3631503e-06 3.2066956e-07 2.8524133e-07 3.7142147e-08 2.0498108e-07 6.554632e-07
3.253832e-07 1.1220616e-07 4.205186e-08 1.2899783e-06 1.3268408e-07 1.2260514e-07 6.854166e-08 4.1606555e-07
5.0356806e-07 9.667717e-07 3.1168537e-07 5.4307475e-07 1.0019225e-07 3.7494695e-07 4.9825047e-08 1.819164e-07
6.704085e-08 3.4496773e-07 5.400137e-07 9.3425444e-07 9.926517e-07 9.053474e-07 4.1295158e-07 6.8492574e-07
2.7314186e-06 2.3854593e-06 1.0662993e-06 4.1815002e-07 1.592561e-06 1.9127704e-06 2.5418342e-06 1.159423e-06
1.3874957e-06 7.66581e-07 7.183406e-07 3.4170347e-07 8.4388404e-07 6.9448964e-07 2.814065e-07 1.6458253e-07
3.6067144e-07 1.6033532e-07 1.1970559e-07 8.815355e-08 9.4774734e-08 8.634789e-07 2.0206564e-07 7.069417e-07
7.888055e-08 2.435889e-07 3.3316314e-07 6.2523424e-07 1.1980993e-07 5.2716564e-07 2.1242724e-07 2.8259254e-07
1.06968116e-07 8.074931e-08 7.539955e-08 6.581805e-07 4.937934e-07 1.8067266e-07 1.79561e-07 1.1733999e-07
9.016356e-08 9.760157e-07 2.47003e-07 4.7892954e-08 8.311523e-08 5.012786e-07 1.8785702e-06 5.1236213e-07
1.5212836e-06 6.822486e-08 8.821775e-07 1.8257748e-07 5.867655e-08 3.1448494e-07 9.390507e-08 3.9671366e-07
3.9718398e-07 5.5325444e-07 3.4106486e-07 1.1723903e-06 6.334573e-07 1.6417403e-07 1.3175729e-07 1.5042452e-06
4.1187667e-07 1.6239643e-06 4.2358712e-07 2.5386837e-06 2.4362446e-06 3.5694957e-06 3.4107552e-07 1.7978155e-06
4.7427443e-07 6.061761e-07 1.1324265e-06 6.509314e-07 5.4403273e-07 6.9556245e-07 5.3445063e-07 1.1719519e-06
1.0817419e-06 1.8807397e-06 6.097185e-07 7.752454e-07 5.902239e-06 6.261064e-06 5.5407454e-06 5.669685e-07
4.3820614e-06 4.19103e-06 4.968174e-06 1.80343e-06 2.4523224e-06 1.3578973e-06 2.2379534e-06 2.160696e-06
2.8128577e-06 2.714409e-06 1.2801085e-07 1.0333604e-07 2.6450834e-07 6.070749e-07 2.547408e-07 3.799968e-08
6.15942e-08 1.1619254e-06 7.469537e-07 1.0889684e-06 5.1232362e-08 8.6084884e-07 8.9842146e-08 4.947735e-07
1.617978e-07 1.5078015e-07 4.273547e-07 3.677549e-07 3.4972436e-07 1.9376434e-07 1.7161918e-07 5.5882433e-06
2.8815614e-06 8.6791476e-07 1.6354822e-06 2.4344506e-06 8.3050355e-07 3.7206294e-06 1.2246136e-06 1.8125457e-06
5.247212e-06 8.770303e-07 5.468419e-06 7.457575e-06 1.6386184e-05 7.893048e-07 1.0103679e-05 1.9664076e-06
1.3592762e-06 2.9957773e-06 9.3256585e-07 1.6775964e-06 9.261213e-08 2.6285707e-07 9.044421e-07 2.262187e-07
00000000: 696a 4a37 86d3 8637 df38 da36 2d84 6236
00000010: 09aa ba37 fba3 0b36 0722 bb36 edea 7837
00000020: 2770 ab36 4a56 aa37 a0a1 1037 1da4 4a37
00000030: 182d 5437 5e5e 3438 eed7 5b36 98c0 0938
00000040: 1687 4237 f4bb c636 daca 7d37 5fdc b636
00000050: 8b58 a936 b8eb a333 f956 0235 5265 8635
00000060: 37b8 1334 411b 6e35 fb71 0e34 b608 3c34
00000070: 89d2 b435 a9bc e634 5c3a 8035 b45a 0a34
00000080: baf3 0f34 e4ca d234 1d22 bf34 c728 9333
00000090: b091 a834 0c66 9235 d4b2 bb33 c93a 2f34
000000a0: 3c2f 9134 a5a7 a434 7bdb 8336 b083 1836
000000b0: aac3 1f36 5f7c 3036 67ae 5c36 fddd d734
000000c0: 59bc 8935 e02f 1537 cad1 1436 515b 0b37
000000d0: 4501 b435 2839 d236 1981 7f36 0967 4837
000000e0: 38da 5435 3042 c036 1cd3 3336 be49 1036
000000f0: ceb7 6936 6da5 0336 0119 2736 e285 8834
00000100: 91a6 0a35 417e c334 0633 9135 6702 1135
00000110: 84fc 4034 5ea3 ee34 5a12 1a36 78a9 0c35
00000120: 6a62 0236 d6d4 fa34 90ef ff35 6afa ff35
00000130: 424a 4c36 8ece 6635 6876 2535 07bf 1c35
00000140: 2f36 4535 06db 9e34 7df5 b635 7d28 ac34
00000150: 4523 9934 3986 1f33 c518 5c34 17f3 2f35
00000160: 54b0 ae34 fdf5 f033 829c 3433 5123 ad35
00000170: ec77 0e34 72a5 0334 2d31 9333 9d5f df34
00000180: ef2c 0735 06c2 8135 b655 a734 d0c7 1135
00000190: 4629 d733 514c c934 38ff 5533 cd54 4334
000001a0: 19f8 8f33 0134 b934 75f5 1035 7ac9 7a35
000001b0: 413b 8535 0007 7335 a2b3 dd34 bddb 3735
000001c0: 6a4d 3736 e115 2036 c41d 8f35 1a7e e034
000001d0: fbbf d535 255d 0036 6194 2a36 799d 9b35
000001e0: fd39 ba35 0cc7 4d35 fdd3 4035 5e73 b734
000001f0: 4587 6235 f76c 3a35 3714 9734 1ab8 3034
00000200: 4ea2 c134 a328 2c34 6c88 0034 ed4e bd33
00000210: f686 cb33 d1c9 6735 61f7 5834 aac4 3d35
00000220: 0a65 a933 9ac6 8234 98dd b234 c5d5 2735
00000230: 1aa5 0034 8c82 0d35 8e17 6434 39b7 9734
00000240: 58b6 e533 6768 ad33 57eb a133 d2ad 3035
00000250: 398d 0435 ecfe 4134 5acd 4034 57fc fb33
00000260: f19f c133 a5ff 8235 d59b 8434 dcb2 4d33
00000270: 157d b233 9a8f 0635 2e23 fc35 4289 0935
00000280: e82e cc35 0383 9233 c7ce 6c35 840a 4434
00000290: 8d03 7c33 7bd6 a834 dca8 c933 e9fb d434
000002a0: 8d3c d534 5b83 1435 991b b734 065b 9d35
000002b0: db0a 2a35 d047 3034 2b79 0d34 79e5 c935
000002c0: e61f dd34 fdf6 d935 5f69 e334 415e 2a36
000002d0: 5d7e 2336 788b 6f36 101d b734 784c f135
000002e0: c89f fe34 1bb8 2235 e1fd 9735 aabb 2e35
000002f0: a509 1235 b0b6 3a35 2b77 0f35 f64b 9d35
00000300: 5e30 9135 b96d fc35 89ab 2335 751a 5035
00000310: d90b c636 2116 d236 a4ea b936 c731 1835
00000320: 9f09 9336 aca0 8c36 4ab4 a636 620d f235
00000330: 9492 2436 ff40 b635 bf2f 1636 7a00 1136
00000340: 87c4 3c36 3129 3636 5b73 0934 97e9 dd33
00000350: c001 8e34 dff5 2235 4fc3 8834 1735 2333
00000360: c545 8433 74f3 9b35 4482 4835 ab28 9235
00000370: 940a 5c33 1515 6735 3eef c033 93d0 0435
00000380: a4ba 2d34 22e6 2134 2f6f e534 d96f c534
00000390: c0c1 bb34 890d 5034 5246 3834 a582 bb36
000003a0: d960 4136 a6fa 6835 be82 db35 8b5f 2336
000003b0: c5ef 5e35 edaf 7936 675d a435 9946 f335
000003c0: 3511 b036 106d 6b35 5d7d b736 153c fa36
000003d0: 1075 8937 9de0 5335 f982 2937 a0f6 0336
000003e0: 6070 b635 100b 4936 7055 7a35 c629 e135
000003f0: 0fe2 c633 cd1e 8d34 cac8 7235 86e6 7234

exp_avg f4 [32, 27]
0.030532805 0.023163171 -0.02460846 0.0048425235 -0.03304288 -0.0050324574 0.002724913 0.0065867575
0.0052805264 0.035009276 -0.005215055 0.0072371243 0.006568028 0.0038757303 0.010756367 -0.0010071982
-0.00040212198 0.0046333675 0.0026305807 -0.012933406 0.0012975066 0.0008641632 -0.01162459 -0.0048693772
-0.004321795 -0.0021225763 -0.0141935665 0.0022507566 0.0064066476 -0.0068841493 -0.0013882357 -0.025397087
-0.009114199 0.0005738109 0.0025999215 0.0006885741 0.00601965 -0.002307191 0.0019577034 0.0005606193
0.0021286607 0.0007467933 0.00093148387 0.00061501557 0.0021184972 -0.0010138159 -0.0024769239 0.00042247897
-0.0024316753 -0.0023208912 -0.0016322809 0.00072840974 0.00201552 -0.004201709 3.3937427e-05 -0.0024639012
-0.00083057233 -0.0003041019 0.0002555 0.002840326 -0.00027134852 0.0011456169 -0.00077176467 -0.0014207162
-8.393182e-05 0.00012511242 -0.00015366447 0.001757815 -0.001173163 0.0023336874 0.0006821138 0.0009254186
0.00065169745 0.0022994487 -0.0005591709 -0.0012611425 -0.0025694396 0.0018491539 -0.0010897934 -0.0010283114
-0.0024487257 0.012193037 0.013565446 -0.0052671805 0.0018046763 -0.002824935 0.001818694 0.00097143237
-0.00013528563 0.0025619734 0.011236664 -0.0009847406 0.0010052477 0.0027012997 -0.0017142103 0.004073132
-0.0035574 -0.0015946649 -0.00074705353 -0.0007111759 -0.0066871573 0.00097278715 0.0022065067 0.001219464
-0.003957254 0.0020007435 0.0012050854 0.00014620468 0.00043209922 0.0026287285 0.0014368304 -0.00020063725
-0.015256914 -0.012634598 0.0010509182 0.003420979 0.0026389777 0.0072331126 -0.0021175349 -0.0004925416
0.0029688135 -0.0016831136 0.003790318 -0.003278542 -0.00088142185 -0.00072569615 -0.0028825728 -0.00533334
-0.001476565 -0.00070020463 0.0028773083 -0.0056887907 0.005410505 0.003294452 0.00057432975 -0.006016296
0.017999463 0.003141458 0.0025925976 -0.012754564 -0.013605489 0.0028759756 0.008416703 0.004339654
0.015906068 -0.0037535906 0.0022023905 0.0043867696 0.0012327369 0.005804337 -0.0022221557 0.0018955601
0.0028522145 -0.0022545503 -0.0075902464 -0.0029502034 -0.0022937008 -0.0027301898 -0.005856849 0.0018370932
0.000211044 -0.0038784794 0.0063994387 0.011220667 -0.00070404925 0.0026017348 -0.0120211905 -4.8968323e-05
0.00019340748 0.0053379573 0.0014712302 -0.0017970596 0.00034376755 -0.0013282691 0.0024104589 -0.00034323143
0.0011142824 -0.00077821116 -0.00044714278 -0.0009166219 -0.0027053242 -0.0012212424 -0.002178611 -0.002680945
0.0032373178 -0.002445542 0.003551502 0.0007492291 0.0024862017 0.00026031383 0.0052027977 -0.003162389
-0.0023210966 -0.01470563 -0.007660539 0.00044579254 0.0016499438 -0.0004549205 -0.002328243 -0.0008093746
-0.0011817034 -0.00045433798 0.00069625414 -0.00084094756 0.00083489245 0.0012776878 0.0007260545 -0.00082097546
0.0010580858 -0.00084330584 -0.002064129 0.00020448453 -0.0015535309 0.0018992395 0.0017000258 -0.00063433475
-0.00032552116 2.550199e-05 -9.764156e-05 -0.0005399328 -0.00052498543 -0.0020192706 -0.0005387634 -0.0017814444
-0.0008253096 -0.00067229226 0.00082147855 0.00034563194 -0.00054238475 2.2761496e-05 -0.0015115916 0.00057376566
-0.0011107418 -0.00045902812 6.388323e-05 0.0014861799 0.0012226383 0.00015688916 -0.0002169883 0.001419907
0.0003350894 0.00018051671 0.000156347 -0.0039514746 -0.0033109898 0.0029046019 0.00074495643 0.008775586
0.0025941376 -0.00023821044 -0.0026088825 -2.3185803e-05 -0.001347666 0.0004573261 -0.0006846653 -0.00080150977
00000000: ef1f fa3c b1c0 bd3c ae97 c9bc 08ae 9e3b
00000010: f957 07bd 50e7 a4bb 7494 323b bad5 d73b
00000020: 4408 ad3b e365 0f3d 0de3 aabb 6625 ed3b
00000030: 9d38 d73b f7ff 7d3b 793b 303c f703 84ba
00000040: e6d3 d2b9 81d3 973b d265 2c3b a3e6 53bc
00000050: 1911 aa3a 0389 623a 1075 3ebc 4c8f 9fbb
00000060: d89d 8dbb ec1a 0bbb 228c 68bc 6e81 133b
00000070: dbee d13b 6e94 e1bb 76f5 b5ba 8d0d d0bc
00000080: b953 15bc cc6b 163a 7263 2a3b 6d81 343a
00000090: 7c40 c53b 3e34 17bb d04c 003b 86f6 123a
000000a0: 0081 0b3b 73c4 433a d32e 743a ff38 213a
000000b0: 7cd6 0a3b 04e2 84ba e353 22bb 2b80 dd39
000000c0: be5c 1fbb 181a 18bb 42f2 d5ba c0f2 3e3a
000000d0: d016 043b 7dae 89bb 0958 0e38 6779 21bb
000000e0: c4ba 59ba de6f 9fb9 a1f4 8539 c324 3a3b
000000f0: c843 8eb9 8628 963a 4050 4aba 5337 baba
00000100: 8e04 b0b8 9c30 0339 fe20 21b9 7c66 e63a
00000110: d1c4 99ba c7f0 183b e2cf 323a ca97 723a
00000120: add6 2a3a 59b2 163b 5395 12ba ec4c a5ba
00000130: 0b64 28bb 4f5f f23a 66d7 8eba 68c8 86ba
00000140: cd7a 20bb 4ec5 473c 9b41 5e3c 5098 acbb
00000150: e38a ec3a 8b22 39bb 3f61 ee3a b9a7 7e3a
00000160: 76db 0db9 c8e6 273b fc19 383c 6912 81ba
00000170: 84c2 833a 4a08 313b 5aaf e0ba e877 853b
00000180: 4523 69bb 1304 d1ba ead5 43ba 356e 3aba
00000190: f11f dbbb a402 7f3a 0a9b 103b 6cd6 9f3a
000001a0: daab 81bb e81e 033b f5f3 9d3a 854e 1939
000001b0: 608b e239 bf46 2c3b 0754 bc3a 2762 52b9
000001c0: 23f8 79bc 5801 4fbc f7be 893a 8132 603b
000001d0: b3f2 2c3b bf03 ed3b 57c6 0abb e81d 01ba
000001e0: 6d90 423b ec9b dcba fc66 783b cfdc 56bb
000001f0: 380f 67ba a53c 3eba 8ce9 3cbb 4cc3 aebb
00000200: 4d89 c1ba f08d 37ba 3991 3c3b 0969 babb
00000210: 9b4a b13b bce7 573b 9e8e 163a 5924 c5bb
00000220: 9c73 933c ebe0 4d3b 92e8 293b 85f8 50bc
00000230: 8fe9 5ebc dd7a 3c3b 36e6 093c a833 8e3b
00000240: 714d 823c cdfe 75bb fb55 103b e4be 8f3b
00000250: c993 a13a 4f32 be3b 96a1 11bb 7174 f83a
00000260: 38ec 3a3b 14c1 13bb 9ab7 f8bb 3358 41bb
00000270: ea51 16bb fcec 32bb cfea bfbb 9eca f03a
00000280: b14b 5d39 162e 7ebb 62b2 d13b e3d6 373c
00000290: f28f 38ba de81 2a3b 87f4 44bc 5663 4db8
000002a0: 6dcd 4a39 08ea ae3b 4bd6 c03a 508b ebba
000002b0: b33b b439 5119 aeba caf8 1d3b bef3 b3b9
000002c0: 1d0d 923a de00 4cba 7d6e eab9 7449 70ba
000002d0: cf4b 31bb 1812 a0ba 07c7 0ebb cbb2 2fbb
000002e0: 2e29 543b 6345 20bb 51c0 683b ea67 443a
000002f0: 8bef 223b bb7a 8839 3b7c aa3b 1540 4fbb
00000300: 8a1d 18bb e2ef 70bc 4205 fbbb 43b9 e939
00000310: ed42 d83a 6582 eeb9 7095 18bb 362c 54ba
00000320: 63e3 9aba 3634 eeb9 d384 363a 0973 5cba
00000330: afdc 5a3a 1778 a73a b154 3e3a bb36 57ba
00000340: 78af 8a3a 4c11 5dba 5746 07bb e66a 5639
00000350: d99f cbba e7ef f83a 66d3 de3a 7c49 26ba
00000360: b6aa aab9 1bed d537 eac4 ccb8 478a 0dba
00000370: 2d9f 09ba bd55 04bb cd3b 0dba 5b7f e9ba
00000380: 9759 58ba c53c 30ba 7e58 573a ef35 b539
00000390: d32e 0eba f1ef be37 9920 c6ba c368 163a
000003a0: 4f96 91ba b6a9 f0b9 0cf9 8538 eccb c23a
000003b0: ef40 a03a 9d82 2439 5a87 63b9 2c1c ba3a
000003c0: f0ae af39 1649 3d39 14f1 2339 5f7b 81bb
000003d0: 31fd 58bb 225b 3e3b 2e49 433a 7ac7 0f3c
000003e0: 6802 2a3b 21c8 79b9 c9f9 2abb 227f c2b7
000003f0: 2ba4 b0ba 45c5 ef39 1c7b 33ba 691c 52ba

exp_avg_sq f4 [32, 27]
0.0033404971 0.0046402314 0.0034116714 0.0002771073 0.0029201584 0.003481526 2.007674e-05 7.890966e-05
4.3154887e-05 0.0014529894 0.00011561281 0.000104029925 7.9971775e-05 6.404471e-05 0.00013121104 3.086581e-05
6.0358423e-05 9.783106e-05 9.740792e-05 0.00022051079 0.000121517965 7.893026e-05 0.0003372534 3.0244211e-05
0.00025135127 0.00012544062 0.00046458255 0.00029870897 0.0020163103 0.0016952092 0.000197017 0.002107402
0.0024663627 1.8688e-05 0.00010772665 4.757445e-05 0.0014740406 0.0001260284 0.00012902814 8.776489e-05
7.551157e-05 0.00012662627 2.8263908e-05 5.718004e-05 0.00010862538 9.077601e-05 0.00025074586 0.00010434626
8.074671e-05 0.00032984625 3.1564112e-05 0.00025604726 0.00014312175 0.00044975826 7.622426e-05 6.768667e-05
9.387531e-05 5.1689503e-06 0.00016870342 9.636613e-05 2.0195914e-06 1.8264847e-05 4.74487e-06 4.4384502e-05
6.9396965e-06 1.1821721e-05 8.237663e-06 4.901964e-06 7.2706084e-06 3.4116313e-06 3.7088416e-06 7.4242416e-06
5.159662e-06 1.4450443e-05 4.2836195e-06 6.4284645e-06 1.4464407e-05 3.7863565e-06 9.240198e-06 8.409921e-06
1.9373629e-05 0.0005531684 0.0006805627 0.0006828713 9.915468e-05 6.818175e-05 0.000563347 8.770769e-06
2.2030206e-05 1.4080122e-05 0.00040632798 4.8640355e-05 3.5870686e-05 2.9831755e-05 2.393203e-05 3.9842624e-05
1.0620714e-05 1.8439012e-05 4.2435462e-05 3.119646e-05 8.079802e-05 3.6976988e-05 2.2768309e-05 9.8036464e-05
7.782466e-06 8.76268e-05 4.20842e-05 0.0001343657 0.00014884093 0.0006264999 0.00058147917 8.908628e-05
0.0010112522 0.00048516004 1.6852697e-05 4.1094765e-05 1.9503734e-05 0.00055421627 5.1957213e-05 4.1707775e-05
4.0343657e-05 3.630147e-05 5.6061133e-05 1.4705608e-05 2.9930052e-05 3.6592217e-05 3.4840767e-05 8.906001e-05
5.043082e-05 3.709705e-05 0.0001237414 1.4156391e-05 0.00012575174 7.783325e-05 0.00016782951 0.00027962402
0.0011200274 0.0008532442 9.1272166e-05 0.0007761247 0.0005750616 2.7085722e-05 9.09992e-05 4.5501503e-05
0.0012708139 0.00015036798 9.612359e-05 9.309493e-05 7.930294e-05 0.0001352748 3.7395734e-05 7.129751e-05
8.844624e-05 8.810658e-05 0.00020269318 0.00011993527 8.799457e-05 0.00030156263 3.2301174e-05 0.00026630278
0.0001700963 0.00040529657 0.0005101081 0.0005942049 0.00051343447 0.00016825598 0.0008926814 0.00060894724
1.9635005e-05 6.9105154e-05 2.834675e-05 0.00069315283 7.935926e-05 6.081081e-05 6.0670674e-05 4.3179665e-05
8.8539804e-05 2.0327734e-05 4.4463235e-05 5.7593672e-05 5.8133075e-05 0.00011966891 7.588222e-05 6.0803457e-05
0.00018574102 2.1765009e-05 0.00015499379 9.9871475e-05 0.00025830077 0.0002098231 0.000734328 0.0005163772
0.000118055104 0.001122799 0.00038139 1.160892e-05 4.71631e-05 1.8130468e-05 0.00062058604 4.657263e-05
4.477357e-05 4.039463e-05 3.1807424e-05 6.581431e-05 1.3792907e-05 3.103839e-05 3.5051435e-05 4.152607e-05
8.551527e-05 5.0004717e-05 3.685171e-05 0.00016471332 1.8868346e-05 0.000111822534 6.693286e-05 0.00022277122
2.7405551e-05 2.260046e-05 3.5666486e-05 1.7407414e-05 5.542822e-05 2.4359375e-05 1.8920623e-06 9.690948e-06
2.7028811e-06 2.9917383e-05 1.420106e-05 5.903964e-06 8.0179525e-06 4.2337965e-06 6.6802017e-06 2.8760958e-06
7.991082e-06 7.002827e-06 4.4146173e-06 8.33971e-06 1.058093e-05 6.897759e-06 8.825891e-06 2.960944e-06
1.38636415e-05 1.2396036e-05 1.4607732e-05 0.00026413 0.00023785191 0.00017939131 4.8598915e-05 0.0003899458
0.0005623992 2.1794247e-06 1.9171117e-05 5.4009192e-06 0.00013999164 1.0027502e-05 1.1231885e-05 9.948133e-06
00000000: 3eec 5a3b 150d 983b 5996 5f3b b648 9139
00000010: 2160 3f3b 502a 643b 796a a837 4d7c a538
00000020: 3501 3538 3c72 be3a 2875 f238 a42a da38
00000030: 85b6 a738 be4f 8638 b295 0939 e975 0138
00000040: 5d29 7d38 a72a cd38 7b47 cc38 ea38 6739
00000050: 76d7 fe38 5c87 a538 63d1 b039 f3b4 fd37
00000060: ccc7 8339 b688 0339 3793 f339 0a9c 9c39
00000070: 1324 043b c831 de3a 5996 4e39 571c 0a3b
00000080: b3a2 213b 2dc4 9c37 4eeb e138 ad8a 4738
00000090: 9834 c13a 7e26 0439 ba4b 0739 6b0e b838
000000a0: f75b 9e38 fbc6 0439 4818 ed37 9ad4 6f38
000000b0: cfcd e338 005f be38 8a76 8339 79d4 da38
000000c0: 8f56 a938 37ef ac39 b563 0438 153e 8639
000000d0: f412 1639 88cd eb39 97da 9f38 01f3 8d38
000000e0: ecde c438 f270 ad36 fbe5 3039 2c18 ca38
000000f0: 5188 0736 7637 9937 1f36 9f36 7f29 3a38
00000100: 8adb e836 e855 4637 7e34 0a37 8d7b a436
00000110: 0df6 f336 61f3 6436 6ae5 7836 c01d f936
00000120: 2921 ad36 2e70 7237 03bc 8f36 17b4 d736
00000130: 28ac 7237 1c19 7e36 5906 1b37 5618 0d37
00000140: 8d84 a237 8102 113a ca67 323a b802 333a
00000150: 43f1 cf38 ccfc 8e38 94ad 133a 2b26 1337
00000160: 82cd b837 aa39 6c37 6b08 d539 2f03 4c38
00000170: db73 1638 353f fa37 a5c1 c837 b11c 2738
00000180: 9f2f 3237 7aad 9a37 bbfc 3138 f2d8 0238
00000190: 1b72 a938 bd17 1b38 92fe be37 ed98 cd38
000001a0: 7091 0237 48c4 b738 9183 3038 85e4 0c39
000001b0: 2f12 1c39 b23b 243a 686e 183a d5d3 ba38
000001c0: fe8b 843a 145d fe39 e45e 8d37 2b5d 2c38
000001d0: f39b a337 d348 113a a2ec 5938 62ef 2e38
000001e0: ac36 2938 6842 1838 2f23 6b38 1bb8 7637
000001f0: 4c12 fb37 987a 1938 fd21 1238 bbc5 ba38
00000200: ae85 5338 a798 1b38 94c0 0139 3d81 6d37
00000210: 3adc 0339 683a a338 64fb 2f39 809a 9239
00000220: e2cd 923a 40ac 5f3a 5f69 bf38 d974 4b3a
00000230: bbbf 163a 2536 e337 d3d6 be38 ded8 3e38
00000240: 7091 a63a 19ac 1d39 f695 c938 f63b c338
00000250: 714f a638 8dd8 0d39 5dd9 1c38 8f85 9538
00000260: 377c b938 dcc5 b838 098a 5439 c285 fb38
00000270: ba89 b838 0d1b 9e39 1f7b 0738 8e9e 8b39
00000280: e15b 3239 fc7d d439 c6b8 053a 6ac4 1b3a
00000290: 0198 063a df6d 3039 d602 6a3a c2a1 1f3a
000002a0: dab5 a437 8cec 9038 2fca ed37 b3b4 353a
000002b0: ae6d a638 1c0f 7f38 a478 7e38 d01b 3538
000002c0: 72ae b938 7a85 aa37 097e 3a38 bc90 7138
000002d0: ead3 7338 c2f6 fa38 f522 9f38 3707 7f38
000002e0: 7ac3 4239 0094 b637 d485 2239 1772 d138
000002f0: 8b6c 8739 f603 5c39 eb7f 403a 7d5d 073a
00000300: 5a94 f738 e22a 933a 4df5 c739 efc3 4237
00000310: fed0 4538 e216 9837 d3ae 223a fb56 4338
00000320: 41cb 3b38 676d 2938 f668 0538 ca05 8a38
00000330: 1668 6737 382f 0238 3104 1338 472c 2e38
00000340: a956 b338 28bc 5138 3991 1a38 e5b6 2c39
00000350: 7747 9e37 4482 ea38 4e5e 8c38 b297 6939
00000360: f9e4 e537 1e96 bd37 9998 1538 2306 9237
00000370: 997b 6838 5c57 cc37 c4f2 fd35 4e96 2237
00000380: 2563 3536 17f7 fa37 1741 6e37 aa1a c636
00000390: d884 0637 0910 8e36 7f26 e036 f302 4136
000003a0: 7011 0637 d3f9 ea36 4621 9436 c8ea 0b37
000003b0: c084 3137 4c73 e736 ea12 1437 a1b4 4636
000003c0: e397 6837 92f8 4f37 bb13 7537 ee7a 8a39
000003d0: e367 7939 fd1a 3c39 b0d6 4b38 a471 cc39
000003e0: f96d 133a 3b42 1236 a9d1 a037 8b39 b536
000003f0: b8ca 1239 cb3b 2837 9470 3c37 e8e6 2637
